scalers/hybrid_other_model.pth (torch, 250389 bytes, 26 tensors)

layers.0.weight f4 [151, 15]
0	0xbe1a0f59	-0.15044917
1	0xbd988372	-0.07446946
2	0x3e460c64	0.19340664
3	0xbe2ef2e6	-0.17084846
4	0xbd53adb0	-0.051679313
5	0xbe12c492	-0.14332798
6	0x3bc961c0	0.006145686
7	0x3db43640	0.0879941
8	0xbd6e4bb8	-0.05817768
9	0xbdbb8604	-0.09156421
10	0xbe2ecf08	-0.17071164
11	0xbe0187fc	-0.1264953
12	0xbcf699c0	-0.03010261
13	0xbdb04010	-0.08605969
14	0xbe130734	-0.14358217
15	0xbe3d1834	-0.18466264
16	0xbe353305	-0.17695244
17	0x3dc96890	0.09834397
18	0xbd5d859c	-0.054082498
19	0xbe3447fe	-0.17605588
20	0xbe6788a3	-0.22610717
21	0xbdb929b0	-0.090411544
22	0xbe03fef1	-0.12890221
23	0xbcca4c40	-0.024694562
24	0xbe5c45ce	-0.21511003
25	0xbdc75f5a	-0.09734984
26	0xbbd6d540	-0.006556183
27	0x3e11bebc	0.14232916
28	0xbcbe1f30	-0.02320823
29	0x3dfef83c	0.12449691
30	0x3d7630c8	0.060105115
31	0xbe6fa375	-0.23402198
32	0xbdcff56a	-0.10154231
33	0xbde29292	-0.11063112
34	0xbd88065e	-0.066418394
35	0xbe12e24c	-0.14344138
36	0xbe466416	-0.19374117
37	0xbe1f1a62	-0.15537408
38	0xbd7df118	-0.061997503
39	0xbe53e4ae	-0.20692703
40	0xbd282c24	-0.04105772
41	0xbe136c74	-0.1439684
42	0xbe4efebd	-0.20214362
43	0x3e2feda8	0.17180502
44	0xbe076433	-0.13221817
45	0xbe2a55fe	-0.16634366
46	0x3dfd71f4	0.123752505
47	0xbe314777	-0.17312418
48	0xbe3bd014	-0.18341094
49	0xbbd7ca00	-0.0065853596
50	0x3cf00920	0.029301226
51	0xbe50a296	-0.20374522
52	0xbe812d94	-0.25230086
53	0xbe2c3c80	-0.16819954
54	0xbe7fcba3	-0.24980025
55	0xbd19f7cc	-0.037589833
56	0x3e0e2dd2	0.13884667
57	0xbde65c1c	-0.11248037
58	0x3baf06c0	0.005341381
59	0x3e5b1f42	0.21398643
60	0xbe7eb9aa	-0.24875513
61	0xbcf29fb0	-0.02961716
62	0xbe5a4492	-0.2131522
63	0x3d7b2750	0.06131679
64	0xbe6ab232	-0.22919539
65	0x3d4878c0	0.04894328
66	0x3e2558f2	0.16147211
67	0xbe227bc4	-0.15867525
68	0x3e6d1d92	0.23155811
69	0xbe025212	-0.1272662
70	0x3e3a0d5a	0.18169156
71	0xbe7b13d8	-0.24519289
72	0xbe4a12e0	-0.19733763
73	0x3d5ec588	0.0543876
74	0x3dccbc9c	0.09996912
75	0x3e0eceec	0.13946122
76	0xbd9f8a8c	-0.077900976
77	0x3e742720	0.2384305
78	0x3e5b1c68	0.21397555
79	0x3e834c09	0.25643948
80	0x3e83518b	0.2564815
81	0x3e167284	0.14692122
82	0xbdef00ec	-0.11670098
83	0xbe0d4974	-0.13797551
84	0x3df0b1a4	0.11752632
85	0x3e61c536	0.22047886
86	0x3dcc190c	0.09965715
87	0xbcf3c110	-0.029755145
88	0x3d8d7b1c	0.06908247
89	0x3e46fb06	0.19431695
90	0x3dadcb44	0.084860355
91	0x3e80c03b	0.2514666
92	0xbde1d158	-0.11026257
93	0x3e244582	0.1604214
94	0x3b00e680	0.0019668639
95	0x3d745158	0.059647888
96	0xbe183236	-0.14862904
97	0xbe803f53	-0.25048313
98	0xbdca1064	-0.098664075
99	0x3d6d57f0	0.05794519
100	0xbddff964	-0.10936239
101	0x3de292bc	0.110631436
102	0x3e798a2a	0.24369112
103	0x3e05b946	0.13058957
104	0xbe80cd2a	-0.25156528
105	0x3e6349b4	0.22196084
106	0x3b3ef480	0.0029137433
107	0x3e388080	0.18017769
108	0x3e69f6a8	0.22847998
109	0x3dafbeb0	0.08581293
110	0xbe821716	-0.25408238
111	0xbd87ce80	-0.066311836
112	0xbc853938	-0.016262636
113	0x3e5a9914	0.21347457
114	0x3d35ad78	0.044354886
115	0xbe1407d2	-0.14456108
116	0x3e15d954	0.14633685
117	0xbe2c3024	-0.16815239
118	0x3e3f79ec	0.18698853
119	0x3e4f8dba	0.20268908
120	0xbe32efa8	-0.17474234
121	0x3e0fbda8	0.14037192
122	0x3e0b88ec	0.1362645
123	0x3e063708	0.1310693
124	0xbe16a410	-0.14711022
125	0x3e6621be	0.22473809
126	0xbde34a34	-0.110981375
127	0x3e54739c	0.20747226
128	0x3d93090c	0.0717946
129	0xbdb95914	-0.090501934
130	0x3d6d40f8	0.057923287
131	0x3e301a0e	0.17197439
132	0xbd2cd0d4	-0.04219134
133	0xbd2cb990	-0.042169154
134	0xbdbaeb84	-0.09126952
135	0x3d09f2a8	0.03367868
136	0x3e3b5f00	0.18297958
137	0x3e8345f3	0.25639305
138	0x3dcb74d8	0.099343956
139	0xbcf9bbd8	-0.030485079
140	0x3d06ad38	0.032880038
141	0x3e4b4336	0.19849858
142	0x3dfb5924	0.122728616
143	0x3e075a3a	0.13218012
144	0x3da6b6ac	0.08140311
145	0xbdb71292	-0.08939089
146	0xbac48500	-0.001499325
147	0xbd257524	-0.040394917
148	0x3baa8b80	0.005204618
149	0xbdee93e2	-0.116493
150	0xbdf6843a	-0.12036939
151	0xbe05bb60	-0.13059759
152	0x3e26101a	0.1621708
153	0xbe3c10a0	-0.18365717
154	0xbe69def3	-0.22838955
155	0xbe1b843e	-0.15187165
156	0xbe797a22	-0.24362996
157	0xbd95fdd2	-0.07323803
158	0x3e5e7722	0.21725133
159	0x3da6c198	0.08142394
160	0xbdf33df0	-0.11877048
161	0x3e697026	0.22796687
162	0x3d69f0a8	0.057114273
163	0x3e2a1da0	0.16612864
164	0xbe222473	-0.15834217
165	0xbe35994e	-0.17734262
166	0xbe5fdbc0	-0.21861172
167	0x3deca01c	0.11553976
168	0xbe6fe4c6	-0.23427114
169	0x3e1cdb6e	0.15318081
170	0xbd6204f4	-0.055180505
171	0xbc9eb050	-0.019371182
172	0xbd8b595a	-0.06804152
173	0xbe807418	-0.25088573
174	0x3e0dc238	0.1384362
175	0xbe415f77	-0.18884073
176	0x3e795c02	0.24351504
177	0x3e0891f6	0.1333693
178	0xbe263c34	-0.16233903
179	0x3c0b77e0	0.008512467
180	0x3e2c0072	0.16797045
181	0x3e6b5702	0.2298241
182	0x3e1f2f86	0.15545473
183	0x3e562d24	0.20915657
184	0xbbc31980	-0.0059539676
185	0x3d9b4510	0.07581532
186	0x3e01d870	0.1268022
187	0xbc8c5640	-0.017130971
188	0xbc030500	-0.007996798
189	0x3d2ea858	0.042641014
190	0x3c697ea0	0.014251381
191	0xbe2b7c63	-0.16746669
192	0x3e146d80	0.14494896
193	0x3e34930e	0.17634222
194	0xbd12f340	-0.035876513
195	0x3e1c1e96	0.15246043
196	0x3df864d0	0.121286035
197	0x3d1b30a0	0.03788817
198	0xbcfe2378	-0.031022772
199	0xbe6187c8	-0.22024453
200	0xbd96ef02	-0.07369806
201	0x3e6f2d92	0.23357227
202	0xbd06f63c	-0.03294967
203	0xbdebf7ae	-0.115218505
204	0xbda25a64	-0.07927397
205	0xbe6cef64	-0.23138195
206	0x3e2a2924	0.16617256
207	0xbe563acc	-0.20920867
208	0x3e17181e	0.14755294
209	0x3cd19690	0.02558449
210	0x3e0767ce	0.13223192
211	0x3dccbb48	0.099966586
212	0x3e60b9ac	0.21945828
213	0x3e766c9a	0.24064866
214	0x3c4167c0	0.011804521
215	0xbe632aa3	-0.22184233
216	0xbd945254	-0.07242265
217	0xbe7db9fb	-0.24777977
218	0x3db721a8	0.08941966
219	0xbd91e86c	-0.07124409
220	0xbd80981a	-0.06279011
221	0x3e21c470	0.15797591
222	0x3e654ac6	0.22391805
223	0xbe271bf3	-0.16319256
224	0xbdac7730	-0.08421171
225	0xbe2906c7	-0.16506492
226	0x3e24c944	0.16092402
227	0x3e8099a7	0.25117227
228	0x3dada9b8	0.08479637
229	0xbbaf64c0	-0.0053525865
230	0xbd8ac4f0	-0.06775844
231	0x3e3c367e	0.18380162
232	0x3d534f88	0.05158952
233	0xbb266300	-0.0025388598
234	0xbdc5197c	-0.096240014
235	0x3db0871c	0.0861952
236	0xbe0484db	-0.12941305
237	0x3de93d84	0.11388686
238	0x3d257ab8	0.040400237
239	0x3e815679	0.25261286
240	0xbbec9d00	-0.0072208643
241	0x3d81809c	0.063233584
242	0xbd99ab74	-0.07503405
243	0xbd7f3364	-0.06230487
244	0x3d78cf48	0.060744554
245	0xbd0677b8	-0.032829016
246	0x3e5475bc	0.20748037
247	0x3e56edca	0.20989147
248	0xbe52c048	-0.20581162
249	0x3e43ddcc	0.19127578
250	0xbe46c08d	-0.1940939
251	0x3e63d3f4	0.22248822
252	0xbcfe2b18	-0.031026408
253	0xbe64c7d6	-0.22341856
254	0x3e42b76c	0.19015282
255	0xbe24653e	-0.16054246

layers.0.bias f4 [151]
0	0xbe449132	-0.19196013
1	0x3e69334c	0.22773474
2	0xbe73baec	-0.23801774
3	0x3e7bdede	0.24596736
4	0xbdc32d8e	-0.09530173
5	0x3e459336	0.19294438
6	0xbe123b1a	-0.14280358
7	0x3e0364ea	0.12831464
8	0xbe2dea53	-0.16983919
9	0x3df5e8ac	0.12007269
10	0x3e460d5a	0.1934103
11	0x3e5f84f4	0.21828061
12	0xbd9f7a86	-0.07787041
13	0xbd930592	-0.07178797
14	0x3b388700	0.0028156638
15	0x3daed7d4	0.0853726
16	0x3e5d076e	0.21584865
17	0xbe7402c2	-0.23829177
18	0xbe6c6a73	-0.23087482
19	0xbd17ce54	-0.037062004
20	0xbd5987a8	-0.053107888
21	0xbe79886a	-0.24368444
22	0xbe438f94	-0.1909774
23	0x3ca10960	0.01965779
24	0xbc5b61c0	-0.013390005
25	0xbe1946f0	-0.14968467
26	0xbe1880fa	-0.1489295
27	0x3e6718ca	0.2256805
28	0xbe76b33f	-0.24091814
29	0xbcbfa208	-0.023392692
30	0x3e18dd28	0.14928114
31	0xbdf85768	-0.121260464
32	0x3e35c68e	0.17751524
33	0xbe8092d8	-0.25112033
34	0x3d955fbc	0.072936505
35	0x3d109110	0.035294592
36	0x3e6af888	0.2294637
37	0xbd433f78	-0.04766795
38	0xbe6d9ac3	-0.23203568
39	0x3ddf2bdc	0.108970374
40	0xbe63869e	-0.22219321
41	0xbcdc7b00	-0.02691412
42	0xbe7a8392	-0.24464253
43	0xbd9e4c0e	-0.0772935
44	0xbd94b046	-0.07260184
45	0xbe23f45c	-0.16011184
46	0xbd96da70	-0.073658824
47	0xbd0b4a5c	-0.03400646
48	0xbe11f576	-0.14253792
49	0xbe811b87	-0.25216314
50	0x3dd57390	0.104224324
51	0x3e02f5d4	0.12789088
52	0xba87da00	-0.0010364652
53	0xbdae2a06	-0.08504109
54	0xbe4d9a6f	-0.20078443
55	0xbd8600ba	-0.06543107
56	0x3e6f7470	0.23384261
57	0xbe1e2046	-0.15441999
58	0xbe477e9c	-0.19481891
59	0xbe811ee5	-0.25218883
60	0x3e66e2e8	0.22547495
61	0xbe7c30c0	-0.24627972
62	0xbe4dc845	-0.20095928
63	0x3cc19ee0	0.023635328
64	0xbe6c96c7	-0.23104392
65	0x3e121d52	0.14268997
66	0xbdf5e654	-0.12006822
67	0xbd40b058	-0.047043175
68	0xbe64c2fa	-0.22340003
69	0xbe21472a	-0.15749803
70	0x3e21f95c	0.1581778
71	0xbe14430b	-0.144787
72	0x3e1a56aa	0.15072122
73	0xbe1398cb	-0.14413755
74	0xbe39c9cd	-0.18143387
75	0x3e06399a	0.13107911
76	0x3e372490	0.17885041
77	0xbe380c60	-0.1797347
78	0x3c3432c0	0.010998428
79	0xbc8c0b60	-0.017095268
80	0x3e300902	0.17190936
81	0xbe1a59ed	-0.15073366
82	0x3e614718	0.21999776
83	0xbe728e11	-0.23687007
84	0x3e2426cc	0.16030425
85	0xbe43b668	-0.19112551
86	0x3d800134	0.062502295
87	0xbe0570ff	-0.13031386
88	0xbe841b35	-0.25802007
89	0x3c56a2a0	0.013100296
90	0xbdbdfbf0	-0.09276569
91	0xbe05f96c	-0.13083428
92	0x3e817031	0.25280908
93	0x3dfdec80	0.123986244
94	0x3e0a384a	0.13498035
95	0x3e3d09aa	0.18460718
96	0x3e29d2ca	0.16584316
97	0xbdf2fc1a	-0.11864491
98	0x3e5eb18c	0.21747416
99	0x3daee09c	0.085389346
100	0xbd144398	-0.036197275
101	0x3e79aae2	0.24381593
102	0xbe0d3d53	-0.13792925
103	0xbe5f2ca3	-0.21794371
104	0x3de48b74	0.11159411
105	0x3e353ac0	0.17698193
106	0x3e727128	0.23675978
107	0x3db9fcf0	0.09081447
108	0xbd9ebc80	-0.07750797
109	0x3dfea244	0.124332935
110	0xbb9d9040	-0.0048084557
111	0xbe297d72	-0.1655176
112	0x3df08dd4	0.117458016
113	0xbe62531b	-0.22102015
114	0x3d1aa3a8	0.03775373
115	0x3d98fb9c	0.07469866
116	0x3d657448	0.056019098
117	0xbe3b002c	-0.18261784
118	0xbc858b28	-0.016301706
119	0x3bbfa700	0.0058487654
120	0x3d4e47c0	0.050361395
121	0xbe31e450	-0.1737225
122	0xbdd0f4ce	-0.10202943
123	0xbdefd1d2	-0.11709942
124	0x3e1a07b4	0.15042001
125	0xbe4f4d08	-0.20244229
126	0x3e43ed4e	0.19133493
127	0xbd74ca94	-0.059763506
128	0x3d3e6100	0.046479225
129	0xbe2ef012	-0.17083767
130	0xbd21bbbc	-0.039485678
131	0xbb4f5080	-0.0031633675
132	0xbe1dc96a	-0.15408865
133	0xbdf88e42	-0.121365085
134	0x3e0d7ddc	0.13817543
135	0x3cb37ef0	0.021911114
136	0x3e5e156c	0.2168786
137	0x3dc4ebc8	0.09615284
138	0x3d687160	0.056748748
139	0xbd3bd800	-0.04586029
140	0x3d82918c	0.06375417
141	0x3c806740	0.015674233
142	0x3e47fe52	0.19530609
143	0xbe122c96	-0.1427482
144	0x3d90f4b8	0.070779264
145	0xbc0904f0	-0.008362994
146	0xbd94789e	-0.072495684
147	0xbe13f1db	-0.1444773
148	0x3d82dff8	0.06390375
149	0x3e012e58	0.12615335
150	0x3d9006cc	0.070325464

layers.1.weight f4 [180, 151]
0	0x3c75cc48	0.015002318
1	0xbcfc39f8	-0.03078936
2	0x3cd60398	0.02612476
3	0x3d42ff28	0.047606617
4	0xbd145703	-0.036215793
5	0xbaea6cc0	-0.0017885193
6	0x3d94bf22	0.07263018
7	0x3d49a0a4	0.049225464
8	0xbce7b43a	-0.02828418
9	0xbd5d1de2	-0.053983577
10	0x3d1028f8	0.03519532
11	0x3d6195ec	0.055074617
12	0xbc3e1aa8	-0.011603035
13	0x3d077764	0.033072844
14	0xbd956b5b	-0.07295867
15	0xbc00fc90	-0.007872716
16	0x3d3aefe8	0.04563895
17	0x3d32f104	0.04368688
18	0xbda16da7	-0.07882243
19	0xbd7500f5	-0.059815366
20	0x3d1a2752	0.037635155
21	0xbbe19370	-0.006884031
22	0x3ce7d6e4	0.02830071
23	0xbd409b0f	-0.047022875
24	0x3d2d29a2	0.042276032
25	0xbd6de2d2	-0.05807764
26	0x3c2b1f68	0.0104445
27	0x3d559f2c	0.05215375
28	0xbb7b3720	-0.0038332418
29	0x3d9528f4	0.07283202
30	0xbd6d4ffc	-0.057937607
31	0x3cfcb4e0	0.030847967
32	0xbcc86e04	-0.024466522
33	0xbd1fe246	-0.03903415
34	0xbb9bbfe0	-0.004753098
35	0x3d957f60	0.072996855
36	0xbc9976c0	-0.018733382
37	0x3d5cba08	0.05388835
38	0xbcb14662	-0.021640006
39	0xbda293be	-0.07938336
40	0xbd927fe6	-0.07153301
41	0x3c372ef8	0.011180632
42	0x3bbc4dd0	0.0057465807
43	0x3d7b2730	0.06131667
44	0x3c876760	0.016528785
45	0x3cbbedcc	0.022940539
46	0x3d520c9c	0.051281556
47	0xbd6dbaa2	-0.058039315
48	0x3d60889c	0.05481778
49	0xbd19773c	-0.037467226
50	0x3d53e818	0.051735014
51	0xbc8444a8	-0.01614602
52	0x3d605338	0.054766864
53	0x3ce9de38	0.028548345
54	0x3d8988bc	0.06715533
55	0x3d106ab4	0.03525801
56	0xbda185f3	-0.07886877
57	0xbd89c1ec	-0.06726441
58	0xbd4c4c2c	-0.04987733
59	0xbcb913fc	-0.022592537
60	0xbd6d2a28	-0.05790153
61	0x3d0c650a	0.034276046
62	0xbd973e1c	-0.07384893
63	0xbd0fba37	-0.035089698
64	0xbd78645a	-0.060642578
65	0xbd8c3892	-0.068467274
66	0xbcc75508	-0.024332538
67	0x3d9bc920	0.07606721
68	0xbd59707a	-0.05308578
69	0x3d9b488c	0.075821966
70	0x3d9f7572	0.07786073
71	0x3ce20e68	0.02759476
72	0xbc8a5008	-0.016883865
73	0xbd160fc0	-0.036636114
74	0xbbb1dbd0	-0.005427815
75	0xbc58f650	-0.013242319
76	0xbc953f1c	-0.01821857
77	0x3b89a380	0.004200399
78	0xbd99f79c	-0.07517931
79	0xbd82abe9	-0.063804455
80	0xbcb91c3e	-0.022596475
81	0xbc8da6b8	-0.017291412
82	0xbd13c54e	-0.036076836
83	0x3cbfd0c4	0.023414977
84	0x3c0c04e8	0.008546092
85	0xbda2c411	-0.07947553
86	0x3d40db0c	0.0470839
87	0xbd296a10	-0.041360915
88	0xbd2bf27d	-0.0419793
89	0xbd977c6f	-0.07396781
90	0x3da5cf02	0.08096124
91	0xbcdff1da	-0.027337003
92	0x3d8b003a	0.067871526
93	0x3d08e3bc	0.03342031
94	0x3cf7e5d4	0.030260958
95	0xbd41c00b	-0.047302287
96	0xbda234c7	-0.07920223
97	0xbd27d47e	-0.040974133
98	0x3da34ab6	0.07973234
99	0x3d9f9eb0	0.07793939
100	0x3c287040	0.010280669
101	0xbcb4e97a	-0.022083987
102	0x3d2cefdc	0.042220935
103	0x3cab8b10	0.020940334
104	0xbd99909a	-0.07498284
105	0x3d8a286a	0.067459896
106	0x3c267d98	0.01016178
107	0x3d8b00d2	0.06787266
108	0x3d0eca28	0.03486076
109	0xbd717ad2	-0.05895502
110	0xbc1738a8	-0.0092298165
111	0xbd10c28b	-0.03534178
112	0xbbcf5660	-0.0063274354
113	0x3d8e9d4a	0.06963594
114	0xbd4a6c38	-0.04941961
115	0xbd30558c	-0.043050334
116	0xbd51ac7b	-0.05118988
117	0x3d9ab04c	0.07553157
118	0xbc8ebd28	-0.017424181
119	0xbc674320	-0.014115125
120	0x3ae0bfc0	0.001714699
121	0x3d080f02	0.033217438
122	0xbc077340	-0.008267224
123	0x3d9cd3f0	0.07657611
124	0xbd89d828	-0.06730682
125	0x3d83676e	0.06416212
126	0xbd3829a8	-0.0449616
127	0x3d6894dc	0.05678259
128	0x3d052148	0.032502443
129	0x3d464338	0.04840395
130	0x3ce86628	0.028369024
131	0xbcbb196e	-0.022839274
132	0x3d859062	0.065216795
133	0xbc7fd488	-0.015614636
134	0x3d82c392	0.06384958
135	0xbc810440	-0.015749097
136	0xbd856fb5	-0.06515447
137	0xbd1d2bb5	-0.03837176
138	0x3d117fb0	0.035522163
139	0x3c60c1b0	0.013718054
140	0xbd888f93	-0.066680096
141	0x3cc96f44	0.024589188
142	0x3d913d60	0.070917845
143	0xbd8aaf80	-0.06771755
144	0x3d8c815a	0.06860609
145	0x3c0cbb80	0.008589625
146	0xbd7d5336	-0.061846934
147	0xbd87dbf6	-0.06633751
148	0x3b83a600	0.0040175915
149	0xbd94dba0	-0.07268453
150	0x3ccdd948	0.025128022
151	0xbcd382e2	-0.025819246
152	0x3b261360	0.0025341138
153	0x3d4758f4	0.048668817
154	0xbd5390e1	-0.05165184
155	0xbd371b70	-0.0447039
156	0x3c06bd20	0.008223802
157	0xbbe51a00	-0.006991625
158	0xbd0fbe7f	-0.03509378
159	0x3d1e0dfe	0.038587563
160	0xbd54ce2a	-0.051954426
161	0x3d3b0840	0.045662165
162	0xbd040924	-0.03223528
163	0xbd904194	-0.07043758
164	0x3d853b36	0.06505434
165	0xbc20abb0	-0.0098065585
166	0x3d9881aa	0.074466065
167	0xbd07899a	-0.03309021
168	0x3d44e19c	0.04806672
169	0x39a2e900	0.00031072646
170	0xbc4eaec8	-0.012614913
171	0xbc9c1a62	-0.019055549
172	0x3d5dbd04	0.054135337
173	0xbd356e82	-0.04429484
174	0xbd8c620b	-0.06854638
175	0x3ca5dbbc	0.02024638
176	0xbd8218b1	-0.06352366
177	0x3d43bf38	0.047789782
178	0x3c836ec0	0.01604402
179	0xbd2baad9	-0.04191098
180	0x3d69a3a0	0.05704081
181	0x3d89342c	0.06699404
182	0x3d42d7ac	0.047568962
183	0xbd614924	-0.055001393
184	0x3c833810	0.016017944
185	0xbd82de9c	-0.063901156
186	0x3c501770	0.0127009
187	0xbd64c0e6	-0.055848025
188	0x3d9ec1ce	0.07751809
189	0x3c72b3d8	0.014813386
190	0x3d99319c	0.07480165
191	0xbbae4270	-0.0053179786
192	0xbcdc6282	-0.026902441
193	0xbcd323e4	-0.02577395
194	0x3ca9c718	0.020724818
195	0x3cc7a6fc	0.024371617
196	0x3bea4f90	0.007150598
197	0x3d098392	0.03357274
198	0xbbafa8d0	-0.0053607
199	0x3ca3fe1c	0.02001863
200	0xbd7cb92e	-0.06170004
201	0xbd3b4fb1	-0.045730297
202	0x3d99f6b2	0.075177565
203	0x3cf7c0b0	0.030243248
204	0x3d849e6c	0.06475529
205	0x3d7152a8	0.058916718
206	0x3d6c8d58	0.057751983
207	0x3c8e6f84	0.01738716
208	0xbd72984a	-0.059227265
209	0x3cdc33d0	0.026880175
210	0x3da31ace	0.07964097
211	0x3d9005d8	0.070323646
212	0x3b5941e0	0.0033150837
213	0x3d8a094c	0.067400545
214	0xbbd36e70	-0.006452374
215	0x3cf03fac	0.029327236
216	0xbd911ebe	-0.07085942
217	0x38d5a800	0.00010187924
218	0xbc0f7670	-0.008756265
219	0x3c8e7164	0.017388053
220	0xbda20240	-0.079105854
221	0xbd934104	-0.07190135
222	0xbae281c0	-0.00172811
223	0x3c351078	0.01105129
224	0xbc59f2f0	-0.01330255
225	0x3d996cf8	0.07491487
226	0x3d3b9250	0.04579383
227	0x3d9b010c	0.07568559
228	0xbda57fbe	-0.080810055
229	0xbd587366	-0.052844428
230	0xbcdd8c0e	-0.027044322
231	0x3cbc9110	0.02301839
232	0xbd92e3a5	-0.07172326
233	0x3d200bfe	0.039073937
234	0x3cb7aca8	0.022421196
235	0xbc5a4dd0	-0.013324216
236	0x3d9fbcde	0.077996954
237	0xbd95bccb	-0.073114
238	0xbbdf7880	-0.0068197846
239	0x3d0038ec	0.031304285
240	0xbc9e8714	-0.01935152
241	0xbda06439	-0.07831616
242	0x3c7c4818	0.015398048
243	0x3d016876	0.031593762
244	0x3d441d88	0.047879726
245	0xbd590da6	-0.05299153
246	0x3d49bf00	0.049254417
247	0xbc40e8d8	-0.011774264
248	0x3d22707a	0.039658047
249	0xbcf2b22a	-0.02962597
250	0x3a8987c0	0.0010492727
251	0x3d0ea44c	0.034824654
252	0x3c4f2f88	0.01264561
253	0xbb80e460	-0.0039334744
254	0xbd3abc56	-0.045589767
255	0x3da10818	0.07862872

layers.1.bias f4 [180]
0	0x3c452608	0.012032993
1	0xbd67cc2f	-0.05659121
2	0x3d464a00	0.048410416
3	0xbd523bae	-0.051326446
4	0xbd34cd8b	-0.044141334
5	0x3cb466ac	0.022021614
6	0xbd6bc2d6	-0.057558857
7	0xbd00497e	-0.031320088
8	0x3d8b4c5e	0.06801675
9	0x3d454e14	0.048170164
10	0xbd7a815a	-0.061158516
11	0x3d8dd970	0.069262385
12	0xbca08f9a	-0.019599725
13	0x3cd34dbc	0.025793903
14	0x3c101658	0.00879439
15	0x3da4833a	0.08032842
16	0xbd58fbba	-0.05297444
17	0xbc97f150	-0.018547684
18	0x3d13d0ca	0.03608779
19	0x3c776ae8	0.015101172
20	0xbcbb6784	-0.022876509
21	0x3cb87f20	0.022521555
22	0x3d732bec	0.05936806
23	0xbd412770	-0.04715675
24	0xbd142cd9	-0.036175583
25	0x3d50cf74	0.050979093
26	0xbd93969b	-0.0720646
27	0xbc644170	-0.013931617
28	0x3bd24bc0	0.0064177215
29	0xbc8a0408	-0.016847625
30	0xbd3da0c0	-0.04629588
31	0xbd86adfb	-0.06576153
32	0xbda147c2	-0.07875015
33	0xbd30e856	-0.043190323
34	0xbd7cfceb	-0.06176464
35	0xbd8c8d04	-0.06862834
36	0xbd1b8583	-0.037969124
37	0x3d8cb440	0.068703175
38	0xbb3f5960	-0.0029197559
39	0xbd6077ae	-0.054801635
40	0x3d9d1908	0.0767079
41	0xbd390515	-0.045170862
42	0x3d49cb70	0.04926628
43	0xbc8d2f60	-0.017234504
44	0xbcad42da	-0.021150041
45	0x3d7dae88	0.061934024
46	0x3ae83cc0	0.00177183
47	0x3cb9c9a8	0.022679165
48	0x3cdba538	0.02681218
49	0x3d8f8a86	0.07008843
50	0x3d30fda6	0.043210648
51	0xbc9db16c	-0.01924964
52	0x3cadeff8	0.02123259
53	0x3d8fa458	0.07013768
54	0xbd988d26	-0.07448797
55	0x3d9af1a4	0.075656205
56	0xbda69a2c	-0.08134875
57	0x3d9cbed0	0.07653582
58	0x3cd941f4	0.026520707
59	0xbd561f70	-0.052276075
60	0xbd94c0f5	-0.07263366
61	0x3bf76350	0.007549681
62	0xbd0ca663	-0.034338366
63	0x3c494ad8	0.012285911
64	0xbc8a86a4	-0.016909905
65	0x3d290a4c	0.041269585
66	0xbd30215d	-0.043000568
67	0xbbdd1810	-0.0067472532
68	0xbc573700	-0.013135672
69	0xbd930808	-0.07179266
70	0x3c973864	0.018459506
71	0xbd1ebee6	-0.038756274
72	0xbcd88fa6	-0.026435684
73	0xbd589236	-0.052873813
74	0xbc14d720	-0.009084493
75	0x3c43cbf8	0.011950485
76	0xbd665892	-0.05623681
77	0xbd268af8	-0.040659875
78	0xbca71cc8	-0.020399466
79	0x3d373394	0.044726923
80	0xbcc5e4d6	-0.024156969
81	0xbd932968	-0.07185632
82	0xbcbc988c	-0.023021959
83	0xbccc6448	-0.024950162
84	0x3d230ff6	0.039810143
85	0xbd8a94d8	-0.06766671
86	0x3d95b9e8	0.073108494
87	0x3c4f42d0	0.012650207
88	0xbd86abbb	-0.06575724
89	0xbcef7038	-0.029228315
90	0xbd6747f6	-0.05646511
91	0x3d501cc8	0.050808698
92	0x3d543d2c	0.05181615
93	0xbd8621ca	-0.065494135
94	0x3d70d8f8	0.058800668
95	0x3da6925a	0.08133383
96	0x3d25f9aa	0.0405213
97	0x3ad35400	0.0016123056
98	0x3d7b4dd8	0.061353534
99	0xbc2be588	-0.010491736
100	0x3d1db3ea	0.038501658
101	0xbd4c0d1d	-0.049817193
102	0x3cbcaa14	0.023030318
103	0xbd7c0313	-0.06152637
104	0x3cfd1504	0.03089381
105	0x3d2e1e5e	0.04250943
106	0xbd5595eb	-0.052144926
107	0x3cabd234	0.020974256
108	0xbd792e02	-0.060834892
109	0x3d7591e8	0.0599536
110	0x3d9ec24e	0.077519044
111	0x3d5ecf78	0.054397076
112	0x3d491dcc	0.049100682
113	0x3cb9acfc	0.022665493
114	0xbc14e008	-0.009086616
115	0xbc980e08	-0.018561378
116	0x3c179340	0.009251416
117	0xbd2498b2	-0.040184684
118	0x3d93f9f8	0.07225412
119	0x3d78a0d8	0.060700268
120	0xbd7a18e1	-0.061058883
121	0xbd1addec	-0.037809297
122	0xbb13e040	-0.0022564083
123	0xbd7629c2	-0.060098417
124	0xbd04c39c	-0.03241311
125	0x3b8f2560	0.004368469
126	0x3b44f020	0.0030050352
127	0xbd838716	-0.0642225
128	0x3d8b6242	0.068058506
129	0x3d2882fc	0.04114054
130	0xbcf5014e	-0.029907849
131	0xbccece74	-0.025244929
132	0xbd3457d9	-0.04402909
133	0x3d116868	0.03549996
134	0x3d09552a	0.033528484
135	0xbd9a1c8e	-0.075249776
136	0xbcbea996	-0.023274224
137	0x3d2b1e9a	0.04177723
138	0xbd2160ce	-0.03939896
139	0x3ca23248	0.019799367
140	0xbcebde54	-0.028792538
141	0xbd509c26	-0.050930165
142	0x3d99e9ae	0.07515274
143	0xbd86040a	-0.06543739
144	0x3d1eeb7a	0.038798787
145	0x3da6336e	0.08115278
146	0xbd90a0f7	-0.070619516
147	0xbcfd3d7c	-0.030913107
148	0xbd65e0e9	-0.056122694
149	0x3d8f403e	0.06994675
150	0xbd35a71c	-0.04434882
151	0x3bde9860	0.006793067
152	0xbb62db80	-0.0034615695
153	0xbd12e327	-0.03586116
154	0x3ba3e3f0	0.0050015375
155	0xbd6cd23a	-0.057817675
156	0xbd129dc9	-0.035795007
157	0x3c37f618	0.011228107
158	0x3d49b2c0	0.049242735
159	0x3d8700b0	0.06591928
160	0xbcad76da	-0.021174837
161	0x3d002f06	0.031294845
162	0xbb41c6a0	-0.0029567853
163	0xbcb6ab1e	-0.022298392
164	0xbca53820	-0.020168364
165	0x39908a00	0.00027568638
166	0x3d47a0d8	0.048737377
167	0x3d813200	0.06308365
168	0x3d4b5bd0	0.049648106
169	0x3d49647c	0.049168095
170	0x3d5d156c	0.053975508
171	0xbc5375a8	-0.012906469
172	0x3c24e3a8	0.010064043
173	0x3d357df4	0.04430957
174	0x3a37b500	0.0007007867
175	0x3c599268	0.013279535
176	0x3c683b08	0.01417423
177	0xbc972438	-0.018449888
178	0xbb2d0d20	-0.0026405528
179	0xbd9ae36e	-0.0756291

layers.2.weight f4 [88, 180]
0	0xbd31f0f4	-0.04344268
1	0x3d96e047	0.07366996
2	0xbd8b35e5	-0.06797389
3	0x3d241a8e	0.040064387
4	0x391e8400	0.00015117228
5	0xbd78cd0e	-0.06074243
6	0xbd737ba8	-0.0594441
7	0x3d3f9efe	0.046782486
8	0xbd082cd2	-0.03324587
9	0x3c201138	0.00976973
10	0xbd80fd62	-0.06298329
11	0xbc57dcc4	-0.013175193
12	0x3d7d964e	0.06191092
13	0x3d845c29	0.06462891
14	0x3d2ca134	0.042145923
15	0x3d8a6c2f	0.06758916
16	0xbce82a98	-0.028340623
17	0x3d97191d	0.07377837
18	0x3d576d22	0.05259431
19	0x3d3f8f4a	0.04676751
20	0xbd7151cc	-0.0589159
21	0x3b35c820	0.0027737692
22	0x3c9dcd88	0.019263044
23	0xbce2fbb2	-0.027707908
24	0x3d15cbb6	0.036571227
25	0xbbdc7090	-0.0067272857
26	0x3d8a826f	0.067631595
27	0xbc95161a	-0.018199015
28	0x3d60eb82	0.054912098
29	0xbd3eda18	-0.04659471
30	0x3d2d1e24	0.042265072
31	0x3d66d406	0.056354545
32	0x3d36da42	0.04464174
33	0x3d05627a	0.032564618
34	0xbc7891e8	-0.0151715055
35	0xbd5db2e0	-0.054125667
36	0x3c0652e0	0.00819847
37	0xbd8b1a00	-0.067920685
38	0x3cdc05ac	0.026858173
39	0xbcd87718	-0.026423976
40	0xbb591c20	-0.0033128336
41	0xbd6a3442	-0.057178743
42	0xbd6ffca6	-0.058590554
43	0x3d800fef	0.06253039
44	0xbd3e1707	-0.04640868
45	0xbcb2d5f6	-0.02183054
46	0xbcd7508c	-0.026283525
47	0x3d4cb45a	0.049976684
48	0xbbbbdb20	-0.005732909
49	0xbac5c380	-0.0015088171
50	0xbd1ba52d	-0.03799932
51	0x3a610c00	0.0008584857
52	0xbcc712d8	-0.024300978
53	0x3d86c807	0.06581121
54	0xbd8d3bc4	-0.06896165
55	0x3d63c5ca	0.05560855
56	0xbc556118	-0.013023637
57	0xbc3c53b0	-0.011494562
58	0xbc43da00	-0.011953831
59	0x3ce294a4	0.027658768
60	0x3cfa17c4	0.03052891
61	0x3cf009ac	0.029301487
62	0xbd6a0000	-0.057128906
63	0xbc108670	-0.008821115
64	0x3cbd3048	0.023094311
65	0x3cb4e4f0	0.022081822
66	0x3cc77fd4	0.024352945
67	0xbbf9b360	-0.00762026
68	0xbd259fc1	-0.040435556
69	0xbd938d47	-0.07204681
70	0xbd8debe1	-0.06929756
71	0x3d2fbd54	0.042905167
72	0xba9363c0	-0.0011244938
73	0x3d915835	0.07096902
74	0xbd2ce203	-0.04220773
75	0xbc6e0834	-0.014528323
76	0x3c7026f0	0.014657721
77	0xbd0b2163	-0.033967387
78	0x3d8292e5	0.06375674
79	0xbb881cc0	-0.004153818
80	0x3d20fe36	0.039304934
81	0xbd8358e3	-0.06413438
82	0xbc4144b8	-0.011796169
83	0xbc80890c	-0.015690349
84	0x3d720192	0.05908353
85	0xbce6c8b4	-0.028171875
86	0x3d8de1d7	0.06927841
87	0x3d8b5401	0.06803132
88	0xbb04fd60	-0.0020292625
89	0xbc2b9c30	-0.01047425
90	0xbd556fac	-0.05210845
91	0x3d3159b6	0.043298446
92	0xbd8c9f32	-0.068663016
93	0x3c0241a8	0.007950224
94	0x3d38f67e	0.04515695
95	0x3cde7fd4	0.027160563
96	0xbcd781cc	-0.02630701
97	0x3d903cbb	0.070428334
98	0x3d86c4d7	0.06580513
99	0x3d249422	0.040180333
100	0x3c159f18	0.009132169
101	0xbd421b6a	-0.047389425
102	0x3c578520	0.013154298
103	0xbd29339a	-0.041308977
104	0x3d88497d	0.06654642
105	0x3d326dee	0.04356187
106	0x3b8a53d0	0.004221417
107	0xbd1ee421	-0.03879178
108	0xbb87e130	-0.0041467175
109	0xbd983b40	-0.07433176
110	0xbc4e79b4	-0.0126022585
111	0xbb939940	-0.004504353
112	0x3c0440e8	0.0080721155
113	0x3c681d90	0.0141672045
114	0x3d38b4f8	0.04509446
115	0x3c22e5e0	0.009942502
116	0x3c552a10	0.013010517
117	0x3c85e054	0.01634232
118	0x3cb879a8	0.022518948
119	0x3b6015a0	0.0034192577
120	0x3a9ee080	0.001212135
121	0x3ba00260	0.0048830956
122	0xbd725bd3	-0.0591696
123	0xbd7243d1	-0.059146706
124	0xbce4a58e	-0.027910974
125	0xbd8f831c	-0.07007429
126	0xbd2e9de8	-0.04263106
127	0x3d529c92	0.05141885
128	0xbc3430c8	-0.0109979585
129	0xbc1b4468	-0.009476759
130	0xbd4764bf	-0.048680063
131	0x3d63c1aa	0.055604614
132	0xbd8a05c3	-0.0673938
133	0xbd5069b4	-0.050882056
134	0xbd1b7526	-0.03795352
135	0xbc94f06c	-0.018181048
136	0xbca7081a	-0.020389605
137	0xbd8c0d84	-0.068385154
138	0xbd68d482	-0.05684329
139	0x3cbe4ba0	0.02322942
140	0xbd8886b4	-0.066663176
141	0x3c32e360	0.010918468
142	0xbd6b1043	-0.057388555
143	0xbb916b20	-0.004437819
144	0x3d23d21c	0.039995298
145	0xbd174efd	-0.036940563
146	0x3cae0318	0.02124171
147	0xbb8ded60	-0.004331276
148	0xbc781f18	-0.015144132
149	0x3c87ff1c	0.016601138
150	0x3c0aa728	0.008462705
151	0xbd48504c	-0.048904702
152	0xbd331afc	-0.043726906
153	0xbd090005	-0.033447284
154	0x3d833f87	0.06408601
155	0x3d3b5108	0.045731574
156	0x3d81f4e5	0.06345538
157	0x3bc6fb80	0.0060724616
158	0x3cf9be90	0.030486375
159	0x3c912fb8	0.01772295
160	0x3c8b0af0	0.016972989
161	0x3d02e4bc	0.03195642
162	0x3d977e2f	0.073971145
163	0xbd82171c	-0.06352064
164	0xbd8fb285	-0.07016472
165	0x3cb0c1f0	0.021576852
166	0xbd8105fb	-0.06299969
167	0xbd8f3cce	-0.069940194
168	0xbc0a7270	-0.008450136
169	0x3d4c0358	0.049807876
170	0x3d09b1f8	0.03361699
171	0x3c6d7e68	0.01449547
172	0xbd3e7893	-0.046501707
173	0x3b5ac580	0.003338188
174	0x3d6c6be2	0.057720073
175	0xbcf57daa	-0.029967148
176	0xbc90e8cc	-0.017689131
177	0xbca7aaaa	-0.020467121
178	0xbd613e45	-0.054991025
179	0xbd1a224d	-0.037630368
180	0xbd753090	-0.059860766
181	0x3d38637e	0.04501676
182	0xbd4d3c1c	-0.050106153
183	0xbc2c4fb0	-0.010517046
184	0xbd8078b2	-0.06273021
185	0x3d1b8320	0.037966847
186	0x3d861c95	0.0654842
187	0x3d858ddb	0.065211974
188	0x3d18122e	0.037126713
189	0xbbe69bf0	-0.007037632
190	0xbd57c4cc	-0.052677915
191	0x3d7f66da	0.062353946
192	0xbd93422f	-0.07190358
193	0x3d23f7b8	0.040031165
194	0xbcc2815c	-0.023743324
195	0xbd927279	-0.0715074
196	0x3c4e2e70	0.012584314
197	0x3ce13edc	0.027495794
198	0x3bd15290	0.006388016
199	0x3d56971a	0.052390195
200	0x3b4bc860	0.0031094775
201	0x3d1c7aac	0.038202927
202	0x3d259db4	0.0404336
203	0xbcdcc97c	-0.026951544
204	0x3d179c3a	0.037014224
205	0x3ab116c0	0.0013510808
206	0x3d8d9b7f	0.06914424
207	0xb9814b00	-0.00024660677
208	0x3d5395b2	0.051656432
209	0xbd338cec	-0.043835565
210	0x3d63bc76	0.055599652
211	0xbcdfc8f0	-0.027317494
212	0xbc2a06f8	-0.010377638
213	0xbd70fcf0	-0.05883497
214	0x3c4e9c18	0.012610458
215	0xbc23a220	-0.009987384
216	0xbd775219	-0.06038103
217	0x3cd14a20	0.02554804
218	0x3cc4e16c	0.02403327
219	0xbd0866e3	-0.033301245
220	0x3cf4c854	0.02988068
221	0x3d167336	0.036730967
222	0x3d2764b2	0.040867515
223	0xbc7dde28	-0.015494861
224	0xbc03a058	-0.008033834
225	0x3cd325e0	0.025774896
226	0x3b274120	0.0025520995
227	0x3d9211dd	0.071323134
228	0xbc224400	-0.009903908
229	0x3cf0cdd8	0.029395029
230	0xbb459020	-0.003014572
231	0x3d97924f	0.07400953
232	0xbd83b6d0	-0.06431353
233	0x3d977a01	0.07396317
234	0xbd109845	-0.035301466
235	0xbbc0b7f0	-0.005881302
236	0xbd0f915d	-0.03505074
237	0xbd29f4a3	-0.04149307
238	0x3aee0a00	0.0018160939
239	0xbd489b30	-0.048976123
240	0x3c107f28	0.008819379
241	0xbd95e6a6	-0.07319383
242	0xbd76f3f6	-0.060291253
243	0xbce43ea8	-0.027861908
244	0xbd021ff2	-0.031768747
245	0xbc917936	-0.017757993
246	0x3d7d6626	0.061864994
247	0xbd11b5e2	-0.035573848
248	0x3d5728ee	0.052529268
249	0xbcf478a4	-0.029842682
250	0x3d16cefe	0.036818497
251	0xbbabb3f0	-0.005239956
252	0xbd532409	-0.051548038
253	0x3d87005f	0.06591868
254	0x3d28d376	0.04121729
255	0xbd5000ac	-0.05078189

layers.2.bias f4 [88]
0	0xbd3053ea	-0.043048777
1	0xbc1c4178	-0.009537093
2	0xbd69fa84	-0.057123676
3	0x3cb96288	0.022629991
4	0xbcdaea68	-0.026723102
5	0xbbee3900	-0.0072699785
6	0xbd389e4c	-0.04507284
7	0x3d145680	0.036215305
8	0xbceddd72	-0.029036257
9	0xbba5eba0	-0.005063489
10	0xbd22109f	-0.039566632
11	0x3d027c20	0.031856656
12	0x3d59f0ca	0.05320815
13	0x3afdbc40	0.0019358471
14	0x3d83ea9d	0.06441233
15	0x3d6334ae	0.05547016
16	0x3d6bdeaa	0.057585396
17	0xbd3c64aa	-0.04599444
18	0xbd0574ff	-0.03258228
19	0x3d60ccba	0.054882742
20	0xbbd94680	-0.0066307187
21	0xbd8ea755	-0.0696551
22	0xbd8f813a	-0.0700707
23	0x3c041c60	0.008063406
24	0xbce4125e	-0.02784079
25	0x3d36b03e	0.04460167
26	0xbd8ea12a	-0.06964333
27	0x3be559f0	0.006999247
28	0x3cc74880	0.024326563
29	0x3d289f90	0.041167796
30	0xbd50de60	-0.050993323
31	0x3d5611d2	0.05226309
32	0xbd69a922	-0.057046063
33	0x3d4b5450	0.049640954
34	0x3d5e92f6	0.05433937
35	0x3d302c0a	0.04301075
36	0xbc10db40	-0.008841336
37	0xbd056a4a	-0.03257207
38	0xbd97f339	-0.07419438
39	0x3c29f370	0.010372981
40	0x3b743fa0	0.0037269369
41	0xbd4d334b	-0.050097745
42	0x3d3a4d50	0.045483887
43	0xbd6ef0dc	-0.05833517
44	0x3cf72954	0.030171074
45	0x3a77c900	0.00094522536
46	0x3d0265a6	0.03183522
47	0xbd8efff6	-0.069824144
48	0x3cb49b74	0.022046782
49	0xbcd5f0aa	-0.026115734
50	0x3d62d98e	0.055383258
51	0xbd7adeee	-0.06124776
52	0x3d8d2565	0.06891898
53	0xbd60f0a6	-0.054917
54	0xbd4e8e2a	-0.050428547
55	0xbce148cc	-0.027500533
56	0x3d7103de	0.05884158
57	0x3cd2dff8	0.025741562
58	0xbd2bf7bf	-0.041984316
59	0xbd172d72	-0.036908574
60	0x3b99c070	0.00469213
61	0xbd2b8204	-0.04187204
62	0x3d215dc4	0.039396062
63	0xbc90082a	-0.017582018
64	0xbd837151	-0.06418098
65	0xbd3d75bc	-0.04625486
66	0xbd93826b	-0.0720261
67	0xbc353138	-0.011059098
68	0xba6f0b80	-0.000911884
69	0xbd775ee9	-0.060393248
70	0xbd8f4286	-0.0699511
71	0xbd8bba60	-0.068226576
72	0xbd6cb464	-0.05778922
73	0xbd2af024	-0.041732922
74	0x3c0bd0d8	0.008533679
75	0xba769f00	-0.0009407848
76	0x3d219fde	0.0394591
77	0x3d966aff	0.07344627
78	0xbd863c63	-0.065544866
79	0xbc7eec94	-0.015559334
80	0x3d828e9d	0.063748576
81	0x3d66be3a	0.056333758
82	0xbc772aa8	-0.015085854
83	0xbcbb76d0	-0.022883803
84	0xbceb3a30	-0.02871427
85	0xbd8e7968	-0.0695675
86	0x3d214d0a	0.03938011
87	0xbd8161dc	-0.06317493

layers.3.weight f4 [132, 88]
0	0xbda21bf0	-0.07915485
1	0xbd00b9aa	-0.031427063
2	0x3cfd95d8	0.03095524
3	0x3c835940	0.016033769
4	0x3d74047c	0.05957459
5	0x3dc55a92	0.096364155
6	0xbb906360	-0.0044063777
7	0xbdd343b5	-0.103156485
8	0xbcad5bec	-0.021161996
9	0x3c85be90	0.016326219
10	0xbd9f4c8c	-0.07778272
11	0x3dc1c304	0.094610244
12	0xbc9fa43c	-0.019487493
13	0xbd08f1fe	-0.033433907
14	0xbc80dcf8	-0.015730366
15	0x3db4a502	0.08820535
16	0x3bdb8f80	0.006700456
17	0xbd4f73ac	-0.050647423
18	0xbc9f0e70	-0.019416064
19	0x3dd78c86	0.105248496
20	0xbd9c9658	-0.07645863
21	0xbda54985	-0.08070663
22	0xbd116776	-0.03549906
23	0xbd8112dc	-0.06302425
24	0x3d4f2b6c	0.05057852
25	0x3dab171e	0.08354019
26	0x3d5ba4a8	0.053623825
27	0x3d25ade4	0.04044904
28	0xbda69fe3	-0.08135965
29	0x3dbe876a	0.09303172
30	0xbd23a83c	-0.039955363
31	0xbd9c3407	-0.07627111
32	0x3ceceee8	0.028922513
33	0x3dd24920	0.10267854
34	0x3cb68250	0.022278935
35	0x3c399b20	0.011328489
36	0xbc0abb78	-0.008467548
37	0xbd9b4fa4	-0.075835496
38	0x3d92f288	0.071751654
39	0x3d2d3188	0.042283565
40	0x3c30f738	0.010801129
41	0xbd5299d6	-0.05141624
42	0xbd809461	-0.06278301
43	0xba84e980	-0.0010140389
44	0xbd53f3b7	-0.051746096
45	0x3dccfb4a	0.10008867
46	0x3d205dc0	0.039151907
47	0x3cb038e0	0.021511495
48	0x3d2e8020	0.04260266
49	0xbd5645a4	-0.05231251
50	0xbd087f62	-0.033324607
51	0xbd1a69aa	-0.037698425
52	0x3dd63938	0.10460132
53	0xbd8ba380	-0.068182945
54	0xbc9c011c	-0.019043498
55	0x3d8095b0	0.062785506
56	0x3d16e630	0.036840618
57	0xbd0bb3fe	-0.0341072
58	0xbd644e64	-0.05573882
59	0x3c5fbfc8	0.013656564
60	0x3dd679be	0.10472439
61	0x3d2fb6c4	0.04289891
62	0x3b6b4040	0.003589645
63	0x3dced14e	0.100985155
64	0xbdc10de6	-0.09426479
65	0x3dbbc6ea	0.09168799
66	0x3c9fca98	0.019505784
67	0x3d9478aa	0.07249577
68	0xbdaec79c	-0.08534166
69	0x3d1b72f0	0.03795141
70	0xbd0fde02	-0.035123833
71	0x3c8a9324	0.016915865
72	0x3d764280	0.060122013
73	0xbd4f728a	-0.050646342
74	0x3d0ea984	0.03482963
75	0x3d280670	0.041021764
76	0x3daae844	0.083450824
77	0xbd412c3d	-0.04716133
78	0x3d94aa62	0.072590604
79	0xbd0dad30	-0.034588993
80	0xbc1a4700	-0.009416342
81	0xbdab52b5	-0.083653845
82	0xbdc29134	-0.095003515
83	0x3d985dd6	0.07439773
84	0x3d9b830c	0.075933546
85	0x3c85feb0	0.016356796
86	0xbc889f18	-0.016677424
87	0xbdc93812	-0.09825148
88	0xbd9bfc5c	-0.07616493
89	0xbdd10648	-0.10206276
90	0x3ced1968	0.028942779
91	0x3d9289d6	0.07155196
92	0xbcc1c63c	-0.023654096
93	0xbdab18fd	-0.083543755
94	0xbd1d874a	-0.0384591
95	0xbcea5c84	-0.028608568
96	0x3d16dddc	0.036832675
97	0x3dca6284	0.098820716
98	0xbd3b3c25	-0.045711655
99	0xbd0ebef4	-0.034850076
100	0x3dd0c454	0.101936966
101	0x3c9736b8	0.01845871
102	0x3d4d35e0	0.050100207
103	0xbdaa6e54	-0.08321825
104	0x3d7f8374	0.062381223
105	0xbd988c15	-0.074485935
106	0x3d4b566c	0.049642965
107	0xbd7616bf	-0.060080286
108	0x3d374a3c	0.04474853
109	0x3dbd956c	0.092570156
110	0xbd875ba0	-0.06609273
111	0xbac48400	-0.0014992952
112	0xbd80024c	-0.06250438
113	0xbd48ba36	-0.04900571
114	0x3c996968	0.01872702
115	0x3d6d0158	0.05786261
116	0x3d9620de	0.07330488
117	0x3ac2f800	0.0014874935
118	0x3d28f184	0.041245952
119	0xbda181b9	-0.07886071
120	0x3d1bdb28	0.0380508
121	0x3db0feb8	0.08642334
122	0xbdcb386b	-0.0992287
123	0xbd4fb712	-0.0507117
124	0xbd8b4b49	-0.06801469
125	0x3cbceeb8	0.023063049
126	0x3d9ff220	0.078098536
127	0xbc8f699c	-0.017506413
128	0xbdd31bb1	-0.10308016
129	0xbc0a9c50	-0.008460119
130	0xbd43f0c2	-0.047837026
131	0xbdb45930	-0.08806074
132	0xbc6f1d30	-0.014594361
133	0x3b48cf20	0.0030641034
134	0xbd403cc3	-0.046932947
135	0x3d95ac7e	0.07308291
136	0xbdce2d97	-0.10067289
137	0xbc6d53f8	-0.014485352
138	0xbdacfe50	-0.08446944
139	0x3ce4ff60	0.027953804
140	0xbcc1f8d8	-0.023678228
141	0xbc68dfd0	-0.014213517
142	0xbd97da7c	-0.074147195
143	0xbd62d747	-0.055381086
144	0xbc20c0e8	-0.009811617
145	0xbda40e40	-0.080105305
146	0xbcaedab8	-0.021344528
147	0x3cd6dab0	0.026227325
148	0xbda33799	-0.07969589
149	0x3d92a7e4	0.07160929
150	0x3d4ec878	0.05048415
151	0x3dc43302	0.095800415
152	0x3bce69b0	0.00629922
153	0x3da55ed2	0.08074726
154	0x3d857b62	0.06517674
155	0xbd897fbc	-0.067138165
156	0x3d966f9a	0.07345505
157	0xbd35d3bd	-0.044391382
158	0x3d6b365c	0.057424888
159	0xbd2f4698	-0.042791933
160	0x3d69cf0c	0.05708222
161	0x3ca7f088	0.020500436
162	0xbdb17d6e	-0.08666502
163	0x3d8e275c	0.06941101
164	0x3d878f58	0.066191375
165	0xbd785729	-0.060629997
166	0xbdbfab3d	-0.09358833
167	0xbd7ba0c2	-0.061432607
168	0x3d2353fc	0.039875016
169	0x3d15a220	0.036531568
170	0xbd2091e6	-0.03920164
171	0xbd49bd6c	-0.049252912
172	0x3dc2895c	0.094988555
173	0xbdb97cdb	-0.090570174
174	0x3dd7e268	0.105412304
175	0x3dbb78e4	0.091539174
176	0x3ceb1f30	0.028701395
177	0xbd146894	-0.036232546
178	0x3d842b22	0.064535394
179	0xbda6a8aa	-0.08137639
180	0xbd2a55f2	-0.04158587
181	0xbdb2eca4	-0.08736542
182	0x3d1476ac	0.036245987
183	0x3dbec928	0.09315711
184	0xbda405c8	-0.08008915
185	0x3c536928	0.012903489
186	0xbd844154	-0.06457773
187	0x3daae496	0.083443806
188	0x3d0082a0	0.031374574
189	0xbc77be40	-0.015121043
190	0xbb9cef70	-0.0047892854
191	0xbda2acf5	-0.07943145
192	0xbcbbaa7c	-0.022908442
193	0xbd32c8cc	-0.043648526
194	0xbd4cd255	-0.050005276
195	0xbdc6ab31	-0.09700621
196	0xbd6541b2	-0.055970855
197	0xbdd5734e	-0.10422383
198	0x3c948c28	0.018133238
199	0x3d127e0c	0.03576474
200	0xbbeec880	-0.007287085
201	0xbd720a79	-0.05909202
202	0x3d962346	0.073309466
203	0xbdd25112	-0.10269369
204	0xbd194ba8	-0.037425667
205	0xbd5693d5	-0.052387077
206	0x3d9950e6	0.07486133
207	0xbd7d5043	-0.06184412
208	0x3dd1c0bc	0.10241839
209	0x3d20ba18	0.039239973
210	0x3d948c98	0.07253379
211	0x3dc37460	0.09543681
212	0xbd9239b6	-0.07139914
213	0x3db45352	0.088049546
214	0x3d3d0aac	0.046152756
215	0xbd35f403	-0.04442216
216	0xbdd5d27a	-0.10440536
217	0x3c28afc0	0.010295808
218	0xbd6744e5	-0.056462187
219	0xbd4276e7	-0.047476675
220	0xbbec3100	-0.0072079897
221	0xbdd90a91	-0.105977185
222	0xbda9fdb8	-0.08300346
223	0xbdbd67f7	-0.09248345
224	0x3d921144	0.071321994
225	0xbd0714ea	-0.03297893
226	0xbd5fdafb	-0.054652195
227	0x3d952c92	0.07283892
228	0xbcc9f054	-0.02465073
229	0x3daed3ae	0.085364684
230	0xbc7c91a8	-0.0154155865
231	0xbd60015f	-0.054688808
232	0xbcc26c28	-0.023733214
233	0x3cce4150	0.025177628
234	0x3dcdc8de	0.10048078
235	0xbcd25170	-0.025673598
236	0x3cb639d0	0.022244364
237	0x3d0b0208	0.033937484
238	0x3dbc65f4	0.091991335
239	0x3cdfe710	0.027331859
240	0xbd0c36f4	-0.034232095
241	0xbdce1948	-0.10063416
242	0x3dac3286	0.08408074
243	0x3c34e018	0.011039756
244	0xbdbde7a4	-0.092726976
245	0x3da93bd0	0.082633615
246	0x3d80a1c6	0.06280856
247	0xbd87a2cd	-0.06622849
248	0xbc7207d0	-0.01477237
249	0x3db4ec0a	0.088340834
250	0xbdd4c1a4	-0.103884965
251	0x3d87f0bc	0.06637713
252	0xbdd0d2c6	-0.10196452
253	0xbcd6c0b0	-0.026214927
254	0xbdc8bf46	-0.098021075
255	0xbd8b11e7	-0.06790524

layers.3.bias f4 [132]
0	0x3cda6548	0.026659623
1	0xbda7118d	-0.081576444
2	0xbb91de00	-0.0044515133
3	0xbdd6a295	-0.10480229
4	0xbdac08b1	-0.08400095
5	0x3d60d664	0.05489196
6	0x3d9dff1e	0.07714675
7	0xbcbcf2b8	-0.023064956
8	0x3d95f622	0.07322337
9	0x3cad1a28	0.021130636
10	0xbd42f8c8	-0.047600538
11	0xbc524cd0	-0.012835696
12	0x3da8e372	0.08246507
13	0x3d26a1f0	0.04068178
14	0xbd063f4a	-0.0327752
15	0xbd236ebc	-0.039900526
16	0x3da441a6	0.08020334
17	0xbceae478	-0.028673396
18	0x3d3a2918	0.045449346
19	0x3daca09a	0.0842907
20	0x3d9307f0	0.07179248
21	0x3c9f4ae0	0.019444883
22	0x3d668308	0.056277305
23	0x3d26c9b0	0.040719688
24	0xbd8514cf	-0.064981095
25	0x3d952f52	0.07284416
26	0x3dd43f38	0.103636205
27	0x3cd6c260	0.026215732
28	0xbc1e3ba8	-0.009657778
29	0xbda0f30d	-0.07858858
30	0x3d9b3e30	0.07580221
31	0xbd39361f	-0.04521763
32	0x3dda2750	0.106520295
33	0x3c8470ac	0.016167007
34	0xbdaf7376	-0.08566944
35	0xbc487360	-0.012234539
36	0x3cb12398	0.021623418
37	0xbd6bc4ac	-0.057560608
38	0xbdca3e1f	-0.0987513
39	0x3db5000a	0.08837898
40	0x3d463460	0.048389792
41	0xbb9de4f0	-0.0048185512
42	0xbc7a7230	-0.0152860135
43	0x3d8ec5c4	0.069713145
44	0x3dace68e	0.08442412
45	0xbc890b1c	-0.01672893
46	0xbb8e3bd0	-0.0043406263
47	0xbd82c0b3	-0.06384411
48	0x3d9f1144	0.07766965
49	0x3cd6c0f0	0.026215047
50	0xbdbef0c5	-0.09323267
51	0xbd4001a4	-0.046876565
52	0xbd97fa7a	-0.074208215
53	0x3c684b60	0.014178127
54	0xbdb7a4b8	-0.089669645
55	0xbdd5da35	-0.1044201
56	0xbceda878	-0.029010996
57	0x3dc2887e	0.0949869
58	0xbb4aca00	-0.0030943155
59	0x3b97a220	0.004627481
60	0xbdd2fc3d	-0.10302017
61	0x3c93e88c	0.018055223
62	0xbd60131e	-0.05470573
63	0x3db545ce	0.08851205
64	0x3d3a7de4	0.045530215
65	0xbc8e0d4c	-0.017340325
66	0xbd1676a4	-0.03673424
67	0x3d7daccc	0.06193237
68	0x3a9ec500	0.0012113154
69	0xbdc6f486	-0.09714608
70	0xbd8a8d3e	-0.06765221
71	0xbd3b3667	-0.04570618
72	0x3cdb7140	0.0267874
73	0x3dce8416	0.10083787
74	0xbd6e1b05	-0.058131237
75	0xbd799b1b	-0.060938936
76	0x3cf3c078	0.029754862
77	0xbbcee670	-0.0063140914
78	0xbda585ff	-0.08082198
79	0x3dc6223a	0.09674497
80	0xbaf65840	-0.0018794611
81	0xbd934abc	-0.07191989
82	0xbd110a4e	-0.035410218
83	0xbda95f5b	-0.08270141
84	0x3dcd2d62	0.10018422
85	0xbdbfb1e0	-0.09360099
86	0x3ce6f278	0.02819179
87	0x3c614540	0.013749421
88	0xbd1d4eea	-0.038405336
89	0x3d46a59c	0.04849778
90	0xbd7ba299	-0.061434362
91	0x3d665c24	0.056240216
92	0xbbe2acc0	-0.006917566
93	0x3d884eda	0.06655665
94	0xbd399aa2	-0.045313485
95	0x3d9cd792	0.07658304
96	0xbd51c0bc	-0.051209196
97	0xba5f5080	-0.00085187703
98	0x3d80ac76	0.06282894
99	0xbdcf5361	-0.10123325
100	0x3ab74a80	0.0013983995
101	0xbd5d07bd	-0.053962458
102	0x3bea22d0	0.0071452633
103	0x3d36deb4	0.04464598
104	0xbdaa71a7	-0.08322459
105	0x3d7b1d28	0.061307102
106	0x3db33e7a	0.08752151
107	0xbdd52e46	-0.104092166
108	0x3d7e8a3c	0.06214355
109	0x3d8f6974	0.070025355
110	0x3dd6f15c	0.104952544
111	0x3d67d100	0.056595802
112	0x3cdc6a08	0.026906028
113	0xbd93dfb2	-0.07220401
114	0xbcd3086c	-0.025760852
115	0xbcfb8f04	-0.030707844
116	0x3d9a28be	0.07527302
117	0xbdc5ab7c	-0.09651849
118	0x3d33cc90	0.043896258
119	0xbcdb3a08	-0.02676107
120	0xbdcaf83c	-0.09910628
121	0xbdb668cb	-0.089067064
122	0xbd5f5b09	-0.054530177
123	0xbd739647	-0.059469488
124	0x3a9c4780	0.0011923164
125	0x3d7399d8	0.05947289
126	0xbda629ea	-0.08113463
127	0xbcdf610c	-0.027267955
128	0xbdc9336f	-0.09824263
129	0x3dd42e00	0.10360336
130	0x3d8ea168	0.069643795
131	0x3d8267b4	0.06367436

batch_norms.0.weight f4 [151]
0	0x3f800000	1.0
1	0x3f800000	1.0
2	0x3f800000	1.0
3	0x3f800000	1.0
4	0x3f800000	1.0
5	0x3f800000	1.0
6	0x3f800000	1.0
7	0x3f800000	1.0
8	0x3f800000	1.0
9	0x3f800000	1.0
10	0x3f800000	1.0
11	0x3f800000	1.0
12	0x3f800000	1.0
13	0x3f800000	1.0
14	0x3f800000	1.0
15	0x3f800000	1.0
16	0x3f800000	1.0
17	0x3f800000	1.0
18	0x3f800000	1.0
19	0x3f800000	1.0
20	0x3f800000	1.0
21	0x3f800000	1.0
22	0x3f800000	1.0
23	0x3f800000	1.0
24	0x3f800000	1.0
25	0x3f800000	1.0
26	0x3f800000	1.0
27	0x3f800000	1.0
28	0x3f800000	1.0
29	0x3f800000	1.0
30	0x3f800000	1.0
31	0x3f800000	1.0
32	0x3f800000	1.0
33	0x3f800000	1.0
34	0x3f800000	1.0
35	0x3f800000	1.0
36	0x3f800000	1.0
37	0x3f800000	1.0
38	0x3f800000	1.0
39	0x3f800000	1.0
40	0x3f800000	1.0
41	0x3f800000	1.0
42	0x3f800000	1.0
43	0x3f800000	1.0
44	0x3f800000	1.0
45	0x3f800000	1.0
46	0x3f800000	1.0
47	0x3f800000	1.0
48	0x3f800000	1.0
49	0x3f800000	1.0
50	0x3f800000	1.0
51	0x3f800000	1.0
52	0x3f800000	1.0
53	0x3f800000	1.0
54	0x3f800000	1.0
55	0x3f800000	1.0
56	0x3f800000	1.0
57	0x3f800000	1.0
58	0x3f800000	1.0
59	0x3f800000	1.0
60	0x3f800000	1.0
61	0x3f800000	1.0
62	0x3f800000	1.0
63	0x3f800000	1.0
64	0x3f800000	1.0
65	0x3f800000	1.0
66	0x3f800000	1.0
67	0x3f800000	1.0
68	0x3f800000	1.0
69	0x3f800000	1.0
70	0x3f800000	1.0
71	0x3f800000	1.0
72	0x3f800000	1.0
73	0x3f800000	1.0
74	0x3f800000	1.0
75	0x3f800000	1.0
76	0x3f800000	1.0
77	0x3f800000	1.0
78	0x3f800000	1.0
79	0x3f800000	1.0
80	0x3f800000	1.0
81	0x3f800000	1.0
82	0x3f800000	1.0
83	0x3f800000	1.0
84	0x3f800000	1.0
85	0x3f800000	1.0
86	0x3f800000	1.0
87	0x3f800000	1.0
88	0x3f800000	1.0
89	0x3f800000	1.0
90	0x3f800000	1.0
91	0x3f800000	1.0
92	0x3f800000	1.0
93	0x3f800000	1.0
94	0x3f800000	1.0
95	0x3f800000	1.0
96	0x3f800000	1.0
97	0x3f800000	1.0
98	0x3f800000	1.0
99	0x3f800000	1.0
100	0x3f800000	1.0
101	0x3f800000	1.0
102	0x3f800000	1.0
103	0x3f800000	1.0
104	0x3f800000	1.0
105	0x3f800000	1.0
106	0x3f800000	1.0
107	0x3f800000	1.0
108	0x3f800000	1.0
109	0x3f800000	1.0
110	0x3f800000	1.0
111	0x3f800000	1.0
112	0x3f800000	1.0
113	0x3f800000	1.0
114	0x3f800000	1.0
115	0x3f800000	1.0
116	0x3f800000	1.0
117	0x3f800000	1.0
118	0x3f800000	1.0
119	0x3f800000	1.0
120	0x3f800000	1.0
121	0x3f800000	1.0
122	0x3f800000	1.0
123	0x3f800000	1.0
124	0x3f800000	1.0
125	0x3f800000	1.0
126	0x3f800000	1.0
127	0x3f800000	1.0
128	0x3f800000	1.0
129	0x3f800000	1.0
130	0x3f800000	1.0
131	0x3f800000	1.0
132	0x3f800000	1.0
133	0x3f800000	1.0
134	0x3f800000	1.0
135	0x3f800000	1.0
136	0x3f800000	1.0
137	0x3f800000	1.0
138	0x3f800000	1.0
139	0x3f800000	1.0
140	0x3f800000	1.0
141	0x3f800000	1.0
142	0x3f800000	1.0
143	0x3f800000	1.0
144	0x3f800000	1.0
145	0x3f800000	1.0
146	0x3f800000	1.0
147	0x3f800000	1.0
148	0x3f800000	1.0
149	0x3f800000	1.0
150	0x3f800000	1.0

batch_norms.0.bias f4 [151]
0	0x00000000	0.0
1	0x00000000	0.0
2	0x00000000	0.0
3	0x00000000	0.0
4	0x00000000	0.0
5	0x00000000	0.0
6	0x00000000	0.0
7	0x00000000	0.0
8	0x00000000	0.0
9	0x00000000	0.0
10	0x00000000	0.0
11	0x00000000	0.0
12	0x00000000	0.0
13	0x00000000	0.0
14	0x00000000	0.0
15	0x00000000	0.0
16	0x00000000	0.0
17	0x00000000	0.0
18	0x00000000	0.0
19	0x00000000	0.0
20	0x00000000	0.0
21	0x00000000	0.0
22	0x00000000	0.0
23	0x00000000	0.0
24	0x00000000	0.0
25	0x00000000	0.0
26	0x00000000	0.0
27	0x00000000	0.0
28	0x00000000	0.0
29	0x00000000	0.0
30	0x00000000	0.0
31	0x00000000	0.0
32	0x00000000	0.0
33	0x00000000	0.0
34	0x00000000	0.0
35	0x00000000	0.0
36	0x00000000	0.0
37	0x00000000	0.0
38	0x00000000	0.0
39	0x00000000	0.0
40	0x00000000	0.0
41	0x00000000	0.0
42	0x00000000	0.0
43	0x00000000	0.0
44	0x00000000	0.0
45	0x00000000	0.0
46	0x00000000	0.0
47	0x00000000	0.0
48	0x00000000	0.0
49	0x00000000	0.0
50	0x00000000	0.0
51	0x00000000	0.0
52	0x00000000	0.0
53	0x00000000	0.0
54	0x00000000	0.0
55	0x00000000	0.0
56	0x00000000	0.0
57	0x00000000	0.0
58	0x00000000	0.0
59	0x00000000	0.0
60	0x00000000	0.0
61	0x00000000	0.0
62	0x00000000	0.0
63	0x00000000	0.0
64	0x00000000	0.0
65	0x00000000	0.0
66	0x00000000	0.0
67	0x00000000	0.0
68	0x00000000	0.0
69	0x00000000	0.0
70	0x00000000	0.0
71	0x00000000	0.0
72	0x00000000	0.0
73	0x00000000	0.0
74	0x00000000	0.0
75	0x00000000	0.0
76	0x00000000	0.0
77	0x00000000	0.0
78	0x00000000	0.0
79	0x00000000	0.0
80	0x00000000	0.0
81	0x00000000	0.0
82	0x00000000	0.0
83	0x00000000	0.0
84	0x00000000	0.0
85	0x00000000	0.0
86	0x00000000	0.0
87	0x00000000	0.0
88	0x00000000	0.0
89	0x00000000	0.0
90	0x00000000	0.0
91	0x00000000	0.0
92	0x00000000	0.0
93	0x00000000	0.0
94	0x00000000	0.0
95	0x00000000	0.0
96	0x00000000	0.0
97	0x00000000	0.0
98	0x00000000	0.0
99	0x00000000	0.0
100	0x00000000	0.0
101	0x00000000	0.0
102	0x00000000	0.0
103	0x00000000	0.0
104	0x00000000	0.0
105	0x00000000	0.0
106	0x00000000	0.0
107	0x00000000	0.0
108	0x00000000	0.0
109	0x00000000	0.0
110	0x00000000	0.0
111	0x00000000	0.0
112	0x00000000	0.0
113	0x00000000	0.0
114	0x00000000	0.0
115	0x00000000	0.0
116	0x00000000	0.0
117	0x00000000	0.0
118	0x00000000	0.0
119	0x00000000	0.0
120	0x00000000	0.0
121	0x00000000	0.0
122	0x00000000	0.0
123	0x00000000	0.0
124	0x00000000	0.0
125	0x00000000	0.0
126	0x00000000	0.0
127	0x00000000	0.0
128	0x00000000	0.0
129	0x00000000	0.0
130	0x00000000	0.0
131	0x00000000	0.0
132	0x00000000	0.0
133	0x00000000	0.0
134	0x00000000	0.0
135	0x00000000	0.0
136	0x00000000	0.0
137	0x00000000	0.0
138	0x00000000	0.0
139	0x00000000	0.0
140	0x00000000	0.0
141	0x00000000	0.0
142	0x00000000	0.0
143	0x00000000	0.0
144	0x00000000	0.0
145	0x00000000	0.0
146	0x00000000	0.0
147	0x00000000	0.0
148	0x00000000	0.0
149	0x00000000	0.0
150	0x00000000	0.0
