scalers/hybrid_proof_model.pth (torch, 250389 bytes, 26 tensors)

layers.0.weight f4 [151, 15]
000000 6c c4 6e be 47 8e 1e be 93 f4 56 be 60 d7 52 3d
       -0.23317116 -0.15483962 -0.20991735 0.05147493
000010 50 df 48 bd 7a e4 fa bd 5a 35 b1 bd 82 4b b8 bd
       -0.049041092 -0.1225061 -0.08652754 -0.08998777
000020 6b 42 73 be 16 76 76 3e 74 34 19 3e ad cd 77 be
       -0.23755805 0.24068484 0.14961416 -0.24199553
000030 c0 70 e8 3c 86 d0 e1 bd e0 a0 4b 3d 2e 3f ef bd
       0.028374076 -0.11026101 0.04971397 -0.116819724
000040 82 45 6d 3e 58 77 83 3d 0e 51 c7 bd ea 24 3e be
       0.23171046 0.064192474 -0.09732257 -0.18568769
000050 5c a2 08 be 42 55 8f bd 10 5b 56 3d 5c 93 63 be
       -0.13343185 -0.069986835 0.052332938 -0.22224182
000060 9e ff 3b 3e 60 50 52 3e 48 20 98 3d 0d 9e 63 be
       0.18359229 0.20538473 0.07428032 -0.2222826
000070 20 c3 61 3d b4 0f 76 3e fc df 6a be 80 e8 8a bc
       0.055117726 0.24029428 -0.22937006 -0.016956568
000080 e4 3c 77 be 48 55 e1 bd 58 70 35 3d fc 03 46 3e
       -0.24144322 -0.11002594 0.044296592 0.19337457
000090 da 3f 28 3e 22 5a 19 3e 7c 42 1d be 50 dc d5 3c
       0.16430607 0.14975789 -0.15357393 0.02610603
0000a0 20 57 33 3c fc 1f 74 be 00 a6 5f 3d b0 2f 75 3d
       0.010946065 -0.23840326 0.05460167 0.05985993
0000b0 f0 89 29 3e 1c 39 64 3e 90 a2 6c bd c8 a1 a1 3d
       0.16556525 0.2228741 -0.05777222 0.078921854
0000c0 3e 83 78 3e b4 3b e6 bd ea cb e3 bd 48 d8 36 be
       0.24268815 -0.11241856 -0.11122878 -0.17855942
0000d0 5e fb 0d be e7 88 80 3e 60 ab f8 3d ea 3f 75 be
       -0.1386542 0.25104448 0.12142062 -0.23950163
0000e0 76 e9 11 be 68 72 61 be 6c f5 6a be 9e 03 78 3e
       -0.14249215 -0.22016299 -0.22945184 0.2422013
0000f0 e2 53 02 3e 6a 27 66 3e 8c 7b 0a bd b7 6c 81 3e
       0.12727311 0.22475973 -0.03380923 0.25278255
000100 02 8e 52 3e 2f a9 74 be 80 95 34 3e c4 56 34 be
       0.20561984 -0.23892663 0.17635155 -0.17611223
000110 e0 c3 6a be c6 17 02 be 00 10 6f 3e a0 78 46 3d
       -0.22926283 -0.12704381 0.23345947 0.04845488
000120 8c 1a 42 3e fa 10 3c be 9c 78 32 be 58 e1 0e 3d
       0.1895544 -0.18365851 -0.17428821 0.034882873
000130 44 41 2e be 26 de 72 be 25 87 33 be c0 7a 34 bc
       -0.17017084 -0.23717555 -0.17532022 -0.011015594
000140 b8 3b 5a 3d b8 82 10 3d cc d8 f8 bd f2 70 d0 bd
       0.05327961 0.035280913 -0.12150726 -0.101777926
000150 18 7e 85 bd fe d5 67 be 9e c8 64 3e e0 f7 a8 3c
       -0.06518191 -0.22640225 0.22342154 0.020626009
000160 2a 7b 36 be 2c 39 96 bd a0 75 7b bd a6 13 25 3e
       -0.17820421 -0.073351234 -0.061391473 0.16120777
000170 7e b0 11 be 7a b8 0c 3e cb 26 80 3e 88 6b 82 3d
       -0.14227483 0.13742247 0.25029597 0.06368166
000180 bc 7c 6a 3e 40 00 2c 3e a0 f8 d4 3c 83 f6 7d be
       0.22899145 0.1679697 0.02599746 -0.24801068
000190 b0 6e b9 3d 90 5b e1 3d da 9e 16 3e f8 28 68 3d
       0.09054315 0.11003792 0.14709035 0.056679696
0001a0 e8 84 e2 3d a8 76 0c 3d 80 e0 5b bc a8 11 9f bd
       0.11060506 0.034292847 -0.013420224 -0.077670395
0001b0 c9 3d 5e be b0 5f a0 3c 78 0e 72 3e 00 ed de bb
       -0.21703257 0.019576877 0.23638332 -0.006803155
0001c0 c8 74 85 bd dc 0a 49 3e 00 5c 9d 3b 70 1f b8 3c
       -0.06516415 0.19633049 0.004802227 0.022475928
0001d0 40 a7 3d 3d 20 6e 8a 3d 06 2c 71 3e d4 76 bf 3d
       0.04630208 0.06759286 0.2355195 0.093488365
0001e0 68 58 3d 3e 76 38 7e 3e 14 ba 26 bd 86 92 b3 bd
       0.18490756 0.24826226 -0.0407048 -0.087681815
0001f0 00 84 63 3e 28 84 8e bc 20 ba d9 3d 0a 1e 6a be
       0.22218323 -0.017397001 0.10631204 -0.22863021
000200 94 85 e9 bd 28 e1 68 bd 43 a6 57 be 3a 5b f7 bd
       -0.11402431 -0.05685535 -0.21059518 -0.12077947
000210 30 9b dd 3d 04 26 92 bd 04 16 3d 3e 1e 30 39 3e
       0.10820615 -0.07136157 0.1846543 0.18084762
000220 90 5e d4 bc f6 b9 2c be c0 d2 13 3d 72 52 7d 3e
       -0.025923997 -0.16867813 0.03608966 0.24738482
000230 a5 0f 0c be 3c ef ba 3d 38 b1 b2 bc be 1d 0c be
       -0.13677843 0.091276616 -0.02181302 -0.1368322
000240 bd e3 44 be e0 b4 7c 3c 70 c6 b7 3d f6 a4 5c 3e
       -0.192275 0.015423983 0.08973396 0.21547303
000250 60 fa f8 3c 8a 47 33 3e 5a 4e 78 3e 9c 74 a5 3d
       0.030392826 0.17507759 0.24248639 0.08078882
000260 14 9a 12 bd 54 8c c7 3d 5c 98 de 3d aa b2 0b 3e
       -0.03579147 0.09743562 0.10868904 0.13642374
000270 38 e6 a9 3d 54 bf 5c be d4 70 e1 3d 37 25 07 be
       0.08295864 -0.21557361 0.110078484 -0.1319779
000280 c8 9b 7b bd 94 98 38 3e 54 4e a0 bd 2a 1a 2f 3e
       -0.06142786 0.18026954 -0.0782744 0.17099825
000290 c4 b6 15 3e cb aa 6f be e4 23 1a be 0e 06 3f 3e
       0.14620501 -0.23404996 -0.15052754 0.18654653
0002a0 1f 8a 65 be 91 0b 81 3e 0c 5e 16 3e 38 7c be bd
       -0.2241597 0.25204137 0.14684314 -0.093010366
0002b0 34 ac 33 3e f0 18 ef bc 54 4a ea bd c6 51 73 3e
       0.17546159 -0.029186696 -0.11439958 0.23761663
0002c0 a1 93 43 be 96 c9 4b 3e 88 28 34 3d b0 fc ce 3c
       -0.19099285 0.19901118 0.043983966 0.025266975
0002d0 24 cf c2 3d e6 be 48 3e ef f9 1d be c6 b7 0e be
       0.09512165 0.19604072 -0.15427373 -0.13937292
0002e0 5c df 5d 3e c2 6f 1a be 50 eb 59 3d e7 76 67 be
       0.21667236 -0.15081695 0.053202927 -0.22603951
0002f0 34 fd 92 3d 3e 6c 56 3e c7 6d 6b be 22 a4 a5 bd
       0.07177201 0.20939729 -0.22991095 -0.080879465
000300 d0 50 49 be 00 90 c7 3d 0e e2 25 3e 34 d1 9c 3d
       -0.19659734 0.09744263 0.16199514 0.0765709
000310 6f d5 33 be fe 17 53 3e 02 e4 5e be 3c 60 1f bd
       -0.17561887 0.20614621 -0.21766666 -0.038910136
000320 26 39 24 3e ab b4 80 3e 53 c0 23 be 18 55 73 be
       0.16037425 0.2513784 -0.15991335 -0.2376293
000330 a0 0f 56 3c 00 0f 06 3b 8a 72 56 3e ac e0 d8 bd
       0.013065249 0.0020455718 0.2094213 -0.10589728
000340 fc b1 c2 3d ba 7e 99 bd 0c 66 99 3d 50 17 40 3d
       0.09506604 -0.07494874 0.07490167 0.046897233
000350 ec 4d 18 3e a7 3c 44 be ce 0a e1 bd 33 36 73 be
       0.14873475 -0.19163762 -0.10988389 -0.23751144
000360 e0 2f da bd aa 5e 2d 3e a6 eb 1a 3e 8c 47 16 3e
       -0.10653663 0.16930643 0.15128955 0.1467573
000370 80 bb a2 3c 88 57 0e 3e dc d6 79 be 50 3d 6d 3e
       0.019864798 0.13900578 -0.24398369 0.2316792
000380 64 09 12 be 6e 28 ab bd bd 39 55 be 93 e5 52 be
       -0.14261395 -0.08357321 -0.20822807 -0.20595388
000390 1a 46 f3 bd 88 1e 04 3e 20 94 80 3d dc dc 92 3d
       -0.11878605 0.12902272 0.062782526 0.07171032
0003a0 9c 38 26 3e 6a cb 44 be 58 1e c6 bc 29 c1 43 be
       0.16232532 -0.19218221 -0.02418439 -0.19116654
0003b0 68 d5 c5 bd da 77 7c 3e 02 49 60 3e 6a 6f 1a be
       -0.09659845 0.24655095 0.2190285 -0.15081564
0003c0 3c da 16 be 80 10 1b bd ad 75 80 be 10 dc 6f 3e
       -0.14731687 -0.037857533 -0.2508978 0.23423791
0003d0 12 bc 4a 3e c6 a5 d2 bd 7c c5 f9 3d f0 73 68 bd
       0.19798306 -0.10285525 0.1219587 -0.05675119
0003e0 2f fb 15 be 60 d2 64 bc d8 4e 39 bd bf 66 80 be
       -0.146466 -0.013966173 -0.045241207 -0.2507839
0003f0 00 5e 4c 3b 94 14 3b 3e 74 c6 64 bd 70 07 b9 3d
       0.0031183958 0.18269569 -0.055853322 0.09034622

layers.0.bias f4 [151]
000000 b6 c0 1d be 20 85 8e 3d 04 ab 81 be 1c e4 45 3e
       -0.15405545 0.06958985 -0.25325787 0.19325298
000010 1a e3 3b be 08 57 2d 3e 4c e5 3b bd 81 8e 5e be
       -0.18348351 0.16927731 -0.04587297 -0.21734048
000020 98 ca 37 3e b6 a8 5e 3e f0 ad 49 bd 88 20 3d 3e
       0.17948377 0.21744046 -0.049238145 0.18469441
000030 88 ca 0b bd c4 8a dc bd a4 0d 70 3e 80 aa 0a 3d
       -0.034128696 -0.10768655 0.23442703 0.033854008
000040 1c 77 43 3e c4 4d 44 bd a2 f2 2c 3e 90 79 17 bd
       0.19088405 -0.047925726 0.16889432 -0.036981165
000050 f2 0b 63 3e 30 5c 59 3e f8 43 87 bc f4 6e 83 be
       0.22172526 0.21226573 -0.016511902 -0.25670588
000060 e0 2e 62 3c f2 9f 6e be 24 a6 43 be c8 89 5c 3e
       0.013805121 -0.23303202 -0.19106346 0.21536934
000070 24 94 e4 3d 86 34 24 3e a0 e0 1a 3d c0 86 4b 3d
       0.11161068 0.16035661 0.037811875 0.049689054
000080 d8 e4 e4 3d 3c a8 82 be d9 03 25 be c5 43 2f be
       0.11176461 -0.25518978 -0.16114749 -0.17115696
000090 c1 3a 34 be 21 38 6b be 54 77 24 be 00 54 fe b9
       -0.17600538 -0.2297063 -0.16061145 -0.0004850924
0000a0 e4 19 dd bd 10 da 4a 3d 50 a5 0a bc 32 80 06 3e
       -0.10795954 0.049524367 -0.008462265 0.1313484
0000b0 54 cc 6f be a0 0d c4 3c be 45 32 3e 64 66 ec 3d
       -0.23417789 0.023932278 0.17409417 0.11542967
0000c0 d6 cb 66 3e 4c 71 19 3e 00 84 dc 3d f0 0f e7 bc
       0.22538695 0.14984626 0.107673645 -0.028205842
0000d0 07 70 67 be 62 61 78 3e 81 43 37 be 90 28 f5 3d
       -0.22601329 0.24255899 -0.17896844 0.11970627
0000e0 b8 14 e6 bd f0 5b 75 3d fc bd 6c 3e e8 3a 34 3d
       -0.112344205 0.05990213 0.23119348 0.04400149
0000f0 c6 6c 48 be a4 21 9e 3d 4e 34 2c be 4c 16 ca bd
       -0.19572744 0.0772126 -0.16816828 -0.09867534
000100 48 bb 2e 3d b6 f7 45 3e 70 21 6f 3e 50 0b 48 3e
       0.042659074 0.19332775 0.23352599 0.19535565
000110 3f f3 80 3e 62 fe e4 bd 3c 63 4c bd 52 28 0b 3e
       0.25185582 -0.11181332 -0.049899325 0.135896
000120 74 06 17 be 69 ae 5e be 28 a3 3d 3e 70 cd 6f 3d
       -0.14748555 -0.2174622 0.1851927 0.05854553
000130 c8 9b 5d be 66 c5 5e 3e 48 fb ab 3d dc d3 8e 3d
       -0.21641457 0.21754989 0.083975375 0.06974003
000140 c6 7c 2a 3e b2 76 5f 3e 28 12 64 3e ca f5 4a be
       0.1664916 0.21822622 0.22272551 -0.19820324
000150 78 79 e7 bc fe 84 17 3e 02 72 24 3e 08 67 f9 bd
       -0.028256163 0.14796826 0.16059116 -0.12177855
000160 44 c0 94 bd 26 58 25 3e 0a 84 7c 3e fc 28 a0 3d
       -0.07263234 0.16146907 0.24659744 0.07820317
000170 70 10 4b bd b0 79 cb bc 90 82 97 bc c0 4c 83 bd
       -0.049576223 -0.024838299 -0.018494874 -0.06411123
000180 40 38 32 bc 18 15 63 bd b8 3b 91 3d 10 12 f8 bd
       -0.010877669 -0.05544004 0.070914686 -0.1211282
000190 98 f5 77 3d ec 9f 82 be 8e ae 7b be 60 b4 4f 3d
       0.06053695 -0.25512636 -0.24578306 0.05070913
0001a0 0a 47 3f 3e c4 db 3e 3e e9 b1 81 3e e2 65 9b bd
       0.18679443 0.18638521 0.25331047 -0.07587792
0001b0 5c d1 cd 3d a0 84 e0 3d 08 c6 5b 3e c2 a7 13 3e
       0.10049698 0.10962796 0.21462262 0.14419463
0001c0 cc b6 ff 3d c8 88 98 bc e8 80 40 3e a8 f7 1a be
       0.124860376 -0.01861991 0.18799174 -0.15133536
0001d0 52 20 6c 3e e4 3f db bd 3e db 18 be a3 36 6b be
       0.23059204 -0.107055455 -0.14927384 -0.22970061
0001e0 4c a4 ff 3d 08 bb 1d be ee 8e 0a be 70 e7 25 3d
       0.12482509 -0.15403378 -0.13531086 0.04050392
0001f0 24 b7 23 3e a0 4b 80 be 72 a5 7d be 30 1e 7b be
       0.15987831 -0.25057697 -0.24770144 -0.24523234
000200 30 31 a2 3d c8 1d 93 bc fc 6d 27 3e f4 7c bb 3d
       0.07919538 -0.017958537 0.1635055 0.09154692
000210 74 d6 c9 3d 82 1f 5e 3e a4 05 6d be ba 51 7d be
       0.09855357 0.21691707 -0.23146683 -0.24738207
000220 e4 14 66 3e 16 b6 1a 3e 4c a0 1e bd 48 81 34 3d
       0.22468907 0.15108523 -0.03872709 0.044068605
000230 c0 85 22 3d fe cf 3f 3e 38 01 66 3d a0 6d 27 3d
       0.039678335 0.18731686 0.056153506 0.04087603
000240 00 ed 48 3e 78 eb 22 be 7e 58 62 be de 55 35 be
       0.19621658 -0.15910137 -0.2210407 -0.17708537
000250 30 ee 15 3e 6a 9b 7a 3e a6 75 40 3e
       0.14641643 0.24473348 0.1879488

layers.1.weight f4 [180, 151]
000000 c8 d8 36 3c 8c c2 8c bd cc 82 a5 3d 88 45 19 3c
       0.011160083 -0.06873044 0.08081588 0.009354956
000010 92 82 9d 3d c0 62 a5 3b 71 85 97 bd 1c 3b 86 bc
       0.0769092 0.0050471723 -0.07398499 -0.016385607
000020 20 4e 02 bb 1b e2 95 bd b0 7a 19 3d 78 6a 97 bc
       -0.0019882992 -0.07318517 0.03747052 -0.018483385
000030 a9 a8 23 bd dc a0 8e bd c4 42 90 3d 6c 28 92 bd
       -0.03995577 -0.06964275 0.070439845 -0.07136616
000040 71 0e 5a bd 3b af 9d bd 78 96 5b 3d b3 03 72 bd
       -0.05323643 -0.07699438 0.053610295 -0.05908556
000050 d0 3b 96 bc 9e f7 8a bd 6b 46 9d bd 20 b3 a8 bc
       -0.018339068 -0.067855105 -0.07679447 -0.020593226
000060 70 ff e2 bb 04 5a 6b 3d d4 c4 bd 3c db 72 17 bd
       -0.006927423 0.057458892 0.023165144 -0.03697477
000070 8c f2 9b 3c 27 1a 2c bd a0 49 ba 3c 1b 55 0e bd
       0.019036554 -0.04201713 0.022740185 -0.03474913
000080 71 64 2c bd 85 34 24 bd f4 e0 17 bd d8 0a 9d 3c
       -0.042087976 -0.04008915 -0.037079766 0.01917021
000090 00 95 6e 3b b0 58 b2 bb 44 f9 cc 3c 38 66 39 3c
       0.003640473 -0.0054427013 0.025021203 0.011315875
0000a0 8c de 83 3c 08 48 23 3c 0c 34 6a 3d 80 ee 28 ba
       0.01609733 0.009965904 0.057178542 -0.00064442307
0000b0 08 43 60 3d 7e 5d 81 3d 36 2c 89 3d af f9 3b bd
       0.054751426 0.0631666 0.06697886 -0.045892414
0000c0 c6 b2 aa bc e8 64 11 3c 00 93 75 3d d8 7a 42 3d
       -0.020837199 0.008874156 0.059954643 0.047480434
0000d0 b8 e6 e2 3c 70 19 fd 3b 98 04 04 3c 3a f7 a0 bd
       0.027697906 0.0077239797 0.008057736 -0.07859655
0000e0 60 37 53 bb 94 3f fc 3c 2c ab 59 3d 40 4d a1 3c
       -0.003222905 0.030792035 0.053141758 0.019690156
0000f0 d4 7f 60 3d 42 74 38 bd 02 41 9d bd ef b2 95 bd
       0.054809406 -0.045032747 -0.07678415 -0.073095195
000100 a0 e4 a5 3b dc db 9c 3c e4 7b 61 bd 7e e8 94 3d
       0.0050626546 0.019147806 -0.055049792 0.07270907
000110 96 9f 1b 3d 7b ad 3b bd c6 6a 29 bd 62 78 85 3d
       0.03799399 -0.04581974 -0.041361593 0.06517102
000120 fa 82 d6 bc 20 91 a2 3d 84 a5 a0 bc c0 ec 76 3d
       -0.026185501 0.07937837 -0.019610174 0.060284376
000130 1c 28 f4 3c 53 35 30 bd b8 01 3b 3d 78 49 56 bd
       0.029804282 -0.043019604 0.045655936 -0.05231616
000140 d5 02 9a bd c8 d7 19 bd 78 21 42 3d 64 de 88 bd
       -0.075200714 -0.0375593 0.0473952 -0.06683043
000150 90 d2 54 bc 5b 2d 84 bd cc 77 79 3d e0 76 07 3c
       -0.012989655 -0.06453963 0.060905263 0.008268088
000160 44 d2 37 bd 10 cb ec bc f0 87 6b 3c 25 fb 1b bd
       -0.04487826 -0.028905421 0.014375672 -0.038081307
000170 f2 e3 c2 bc 70 5c 06 3d c0 44 49 3d 10 29 67 bc
       -0.023790333 0.032803 0.04913783 -0.014108911
000180 cc d5 cd bc b8 f1 89 3d 94 d5 a3 bc 40 89 db ba
       -0.02512636 0.06735557 -0.019999303 -0.0016749278
000190 bc 7d 78 bd 54 c5 6b bd 6c ab 76 bd 38 c8 13 bc
       -0.060666785 -0.057561234 -0.060222074 -0.009019904
0001a0 18 07 19 bd 70 03 2c bc fc ea 76 3d fc b6 89 3d
       -0.03736028 -0.010498866 0.060282692 0.067243546
0001b0 80 d2 24 3b 76 38 9b 3d d8 17 07 bd 68 7e 60 bc
       0.0025149882 0.075791284 -0.032981724 -0.013702013
0001c0 2c 07 54 bd 78 c5 73 bd 09 55 47 bd 74 ee 7b 3d
       -0.051764652 -0.059514493 -0.04866508 0.061506703
0001d0 24 ab a3 3c e3 ed 5a bd e6 1c d9 bc fe c2 76 bd
       0.019979067 -0.053449523 -0.026503038 -0.060244553
0001e0 82 d5 8f 3d d0 05 a5 bb ee 1f 04 3d a1 22 90 bd
       0.07023145 -0.0050360933 0.032257013 -0.07037855
0001f0 d6 83 1b bd c9 cc 1d bd ff 2e 1b bd 10 ba b1 3c
       -0.037967525 -0.038525376 -0.037886616 0.021695167
000200 16 21 25 bd 9c f7 9b 3c ca a4 08 bd 38 8b 8e 3c
       -0.040314756 0.019038968 -0.03336028 0.017400369
000210 00 d4 3f ba 36 79 9f bd bc 0a 2e 3d 38 e6 80 3d
       -0.0007317662 -0.07786791 0.042490706 0.06293911
000220 f8 79 1c bc d4 97 c3 3c b4 85 c7 3c 5c 06 95 3c
       -0.009550564 0.023876108 0.024355747 0.018191509
000230 2a ac 86 3d 98 84 83 bd 24 51 eb bc b8 96 27 3c
       0.065758064 -0.064217746 -0.028725214 0.010228805
000240 76 80 8d 3d bd 0d 99 bd d8 1c 9d 3d b0 de 8e bb
       0.069092676 -0.074733235 0.07671517 -0.0043600425
000250 c2 32 13 3d 50 fb 21 3d 88 fe 4a 3d 60 7e 30 3b
       0.03593708 0.03954631 0.049559146 0.0026930794
000260 7e 95 84 3d 9f b8 8b bd dc 54 98 3d 5a 82 97 3d
       0.06473826 -0.06822323 0.07438061 0.073979095
000270 80 27 7d bc 0c bf 90 3d 09 c3 03 bd b0 8a f7 bb
       -0.015451312 0.07067689 -0.032168422 -0.0075543746
000280 48 67 50 bc a6 b2 1a bd 14 6e f6 3c 0e b7 83 bd
       -0.012719937 -0.03776803 0.030081786 -0.06431399
000290 5b c8 44 bd 94 5b 7a bd c5 64 47 bd 9c 1a 3d 3d
       -0.048042636 -0.061122492 -0.048680086 0.046167955
0002a0 d8 19 6d 3d 38 ab 6a bd 0a 9d 5a bd 60 d8 4f 3d
       0.057885975 -0.057292193 -0.05337242 0.05074346
0002b0 1e 67 a2 3d 50 66 91 bc 02 33 74 bd 80 24 18 ba
       0.07929824 -0.017748982 -0.059618957 -0.0005803779
0002c0 68 a2 84 3d 10 cb 92 3b 10 a0 7d 3d 42 ef ec bc
       0.06476289 0.0044797733 0.061920226 -0.02892268
0002d0 58 b2 15 bc de f6 19 3d 3b 89 31 bd 94 1f 8f 3d
       -0.009136759 0.037588947 -0.043343764 0.06988445
0002e0 44 e2 85 3c 50 4b 8c bb e4 12 d1 bc b8 8c c9 3c
       0.016343243 -0.004281439 -0.025521703 0.024603233
0002f0 47 cf 19 bd 5c 45 bd 3c 5c f8 90 bc d0 9f 87 bb
       -0.03755119 0.023104362 -0.017696552 -0.004138924
000300 f2 4d 24 3d 11 0a 87 bd 80 ec 1b 3b 18 90 1d 3d
       0.040113397 -0.06593717 0.0023792088 0.038467497
000310 d5 e8 31 bd 88 00 76 3d 2c 62 0f bd 56 7e 87 3d
       -0.043434937 0.0600591 -0.035005733 0.066158935
000320 50 62 a8 3c 88 f5 02 bc 00 4f 4e 3b a0 de 71 3d
       0.020554692 -0.0079931095 0.0031480193 0.059050202
000330 4e da 04 3d 6c f4 84 bc e9 8a 72 bd 54 e7 a9 3c
       0.032434754 -0.01622983 -0.059214506 0.020740189
000340 4c b9 a6 bc e6 7f 81 bd 90 34 85 bc 58 25 b7 3c
       -0.020352028 -0.06323223 -0.016260415 0.022356674
000350 00 58 a9 bb 78 aa 96 3d 22 be 9e bc 30 2c 3a 3d
       -0.005167961 0.07356733 -0.019377772 0.045452297
000360 80 71 1e 3b f8 f3 86 3d a8 66 15 bd 7a 6a 60 bd
       0.0024176538 0.06589502 -0.036474854 -0.054789044
000370 a0 be 94 3b 37 3a 92 bd 10 08 9b bd c6 f3 bc bc
       0.004539326 -0.0714001 -0.07569897 -0.023065459
000380 2c 56 05 3d 1c 70 91 3c c4 37 bd bc f0 b6 d2 3b
       0.032552883 0.017753653 -0.02309788 0.0064304993
000390 aa 10 87 3d c2 da 86 3d d2 59 a4 bc 23 9d 26 bd
       0.06594975 0.065846935 -0.02006236 -0.0406772
0003a0 80 74 45 3d a2 42 98 3d fa 70 63 bd b5 44 3b bd
       0.048206806 0.07434584 -0.055527665 -0.04571982
0003b0 e0 c5 c6 bb de aa 54 bd 8b 95 6d bd 8a f8 94 3d
       -0.006066069 -0.051920764 -0.058003943 0.072739676
0003c0 01 db 83 bd 58 46 1f bd a9 36 87 bd 00 fa 80 bc
       -0.06438256 -0.038885444 -0.066022225 -0.01574421
0003d0 e0 dc 71 bd 00 c3 e6 bb 92 b0 80 3d f8 e6 bf bc
       -0.059048533 -0.007042289 0.06283678 -0.023425564
0003e0 76 7a 6e bd ec b6 56 3d ce da b5 bc a6 a8 96 bd
       -0.058222257 0.05242054 -0.02219906 -0.07356386
0003f0 28 30 43 3d cc 82 03 3d 6c d3 20 bd 2f 86 87 bd
       0.047653347 0.03210716 -0.039264128 -0.0661739

layers.1.bias f4 [180]
000000 ce f6 32 bd 74 d4 2a 3d ca 16 00 3d 48 18 1a 3d
       -0.043692403 0.041706517 0.031271733 0.037620813
000010 66 e2 4b bd d8 35 60 bc d3 da 15 bd d8 3b 44 3d
       -0.049776457 -0.013684712 -0.03658564 0.047908634
000020 60 e9 be 3c 90 d9 8b 3c 4e 1a 82 3d f0 c8 c5 bb
       0.023304641 0.017071515 0.063526735 -0.0060359165
000030 49 95 89 bd 7c 79 6c 3d e1 f9 3a bd 08 d5 0d 3d
       -0.06717927 0.057733044 -0.04564846 0.03462699
000040 ac e6 6d 3d 54 62 53 bd 04 ec a0 bd be bb 55 bd
       0.058081314 -0.051607445 -0.078575164 -0.052180998
000050 f0 6b 48 bd a0 3d 39 bc 36 11 f4 bc 04 b1 34 3d
       -0.048931062 -0.011306196 -0.029793363 0.044114128
000060 95 d6 90 bd 36 a9 a3 3d d6 76 9e bd 80 1a d1 3b
       -0.07072178 0.07991259 -0.0773751 0.006381333
000070 00 22 41 b9 06 14 cc bc 43 41 88 bd fd 62 58 bd
       -0.0001841858 -0.024911892 -0.06653073 -0.052828778
000080 60 99 4d bb 8c da 56 3d a0 2c e7 bb 20 4b 9f bc
       -0.0031371936 0.052454516 -0.0070548803 -0.019445002
000090 e9 6e 79 bd 18 7f 31 3c 88 ff 9f bd a4 70 16 3d
       -0.060896788 0.010833524 -0.078124106 0.036728516
0000a0 86 5c a4 3d 2b 12 8d bd 30 23 b8 3b d8 2e d9 bc
       0.0802546 -0.06888231 0.005619429 -0.026511595
0000b0 5e 3a 91 3d 0c f0 a1 bd ca 9d 8e 3d b8 e5 82 bd
       0.07091211 -0.079071134 0.069636896 -0.063914716
0000c0 d4 8c 4a 3d f0 f6 f6 3c 00 6e 15 39 18 10 70 bd
       0.04945071 0.030147046 0.00014250726 -0.0586091
0000d0 48 75 8c 3d 07 40 32 bd 4c d3 15 bd 33 7d 9a bd
       0.06858307 -0.043518092 -0.03657846 -0.07543411
0000e0 28 da 74 3d 30 16 35 3d a8 09 81 3d 28 17 55 3d
       0.059778363 0.044210613 0.0630067 0.052024037
0000f0 d8 7b 14 3d e8 05 1d 3d 56 c8 94 3d a0 38 af 3c
       0.03625092 0.03833571 0.072647735 0.021389306
000100 c2 f0 97 bd f8 f0 40 3d 66 0b bb bc 6c 06 e6 3c
       -0.07418968 0.047104806 -0.022832584 0.028079234
000110 18 a0 72 bc f3 cb 33 bd f0 31 2d 3c c4 20 2f bd
       -0.014808677 -0.043895673 0.010570988 -0.042755857
000120 48 50 1a 3d 00 c5 b0 b9 e8 af e2 3c a4 08 76 3d
       0.03767422 -0.00033716112 0.02767177 0.060066834
000130 16 78 8d 3d 7c ab 64 bd ba df be bc 40 52 25 3d
       0.0690767 -0.055827603 -0.02330004 0.040361643
000140 30 e8 7e bc 44 14 b2 bc b0 88 4a bc d4 53 a9 3c
       -0.0155582875 -0.021738179 -0.01236169 0.020669855
000150 60 ce 02 3d ce 7e 86 3d 97 ff 0b bd a8 3e 9c 3c
       0.031935096 0.06567155 -0.034179296 0.019072846
000160 c0 35 36 3b e0 b0 70 3d e0 39 4e 3c b2 ff 9b bc
       0.0027803034 0.05876243 0.012587041 -0.019042823
000170 36 40 86 bd 69 10 a4 bd 7c fd 58 3d 98 72 53 3c
       -0.06555216 -0.080109425 0.052976117 0.012905739
000180 98 4f 63 3d 7c ff 8f 3c 78 ea 9f bd e0 af 74 3c
       0.05549583 0.01757788 -0.07808393 0.01493451
000190 24 19 53 3d 7c 0f 80 bd b0 db 6b bc 88 bb 56 3d
       0.051537648 -0.062529534 -0.014395639 0.052424937
0001a0 44 57 68 3d e0 b0 61 bd 60 28 28 3b d0 14 23 bc
       0.056723848 -0.05510032 0.002565883 -0.009953693
0001b0 58 18 6e 3d 44 1a 92 bc f4 50 59 3d 68 13 5f 3d
       0.058128685 -0.01783479 0.05305572 0.054461867
0001c0 84 b3 86 3c 14 39 2f 3d b8 d2 f2 bc a0 fa ec 3b
       0.016443022 0.042779043 -0.029641494 0.0072320253
0001d0 6c 18 f3 3c ca 2e 14 bd 08 1b 2e 3c d0 9c c6 bc
       0.029674731 -0.036177434 0.010626562 -0.024244696
0001e0 a0 31 48 3c 63 60 05 bd 80 dc 3b bd 0c 44 5c 3d
       0.012218863 -0.032562625 -0.045864582 0.053775832
0001f0 a0 c7 7d 3c ad 35 91 bd 06 9e 82 3d 40 a7 ab 3b
       0.015489489 -0.07090316 0.06377797 0.0052384436
000200 18 dd d0 bc 88 7b d7 3c 6e 6e 8c bd 78 44 26 bc
       -0.02549605 0.026304021 -0.06857 -0.01014816
000210 da ae 8b bd 44 6a 4d 3d 15 f0 2e bd 1e 8e 98 3d
       -0.0682046 0.05015017 -0.04270943 0.07448982
000220 47 e3 90 bd 0e cc 86 3d d4 61 81 bd a0 f1 62 bc
       -0.070746 0.06581889 -0.06317487 -0.013851553
000230 f2 43 9f bc fa 3f 7b bd 50 9f 64 3c 50 a7 3a 3d
       -0.019441579 -0.06134031 0.013953999 0.045569718
000240 f6 06 64 bd ec 10 92 bc 00 10 b1 37 48 fb ad 3c
       -0.0556707 -0.017830335 2.1107495e-05 0.021237984
000250 1d 75 6d bd 6e 10 80 bd ba a6 a5 bd b8 2e 47 3d
       -0.057973016 -0.06253134 -0.08088441 0.04862854
000260 d4 84 a4 bc 6e de 7c bd 4c da 81 bd ee 8b a4 3d
       -0.020082869 -0.061735563 -0.06340465 0.08034502
000270 0a e3 1b bd 00 cd 99 3a e0 9f 72 3c 54 72 4a 3d
       -0.03805832 0.0011734068 0.014808625 0.049425438
000280 48 7c 72 bd 00 6e 67 b9 84 a6 67 bd 28 e1 9c bc
       -0.059200555 -0.00022070855 -0.056555286 -0.019150332
000290 60 bc df bb b4 36 3a 3d 50 22 78 bd 38 12 55 3d
       -0.006827876 0.045462325 -0.060579598 0.052019328
0002a0 18 cc a4 3d 38 f2 3c 3c 18 ef 44 3d a0 a0 3f bd
       0.0804674 0.011532359 0.04807958 -0.046784043
0002b0 78 f4 5b 3c a8 3a a4 3c 86 75 64 bd d5 20 95 bd
       0.013424985 0.0200475 -0.05577614 -0.07281653
0002c0 43 5c 93 bd 02 3d 52 bd 34 d7 94 bd 22 34 86 bd
       -0.07195332 -0.051327713 -0.07267609 -0.06552912

layers.2.weight f4 [88, 180]
000000 90 f0 5c bc d8 d4 5a bd 5a b6 7a 3d 36 9c 86 bc
       -0.013485089 -0.05342564 0.06120906 -0.016431909
000010 ba 29 79 3d b2 cf 2f 3d e6 b2 26 3d 1e d7 51 3d
       0.06083081 0.042922683 0.040697955 0.051230542
000020 fc 6e 0f 3d 27 bf 8d 3d 00 94 91 b9 f8 fd 26 3d
       0.035017952 0.06921225 -0.00027766824 0.040769547
000030 db f4 97 bd b5 80 84 3d de f6 88 bc f6 1b 73 bd
       -0.07419749 0.064698614 -0.016719278 -0.059352838
000040 42 aa 35 3d aa 20 18 3d f8 2a 68 bd 77 3f 82 3d
       0.044351824 0.037140526 -0.056681603 0.06359761
000050 af b9 97 3d f2 00 58 bd 4c 8a 0f 3d 78 98 99 3c
       0.07408463 -0.052735277 0.035044 0.01874946
000060 1c 88 72 bd 06 24 a6 bc ca 67 88 bd 95 d0 82 3d
       -0.059211835 -0.02028085 -0.06660421 0.0638744
000070 26 27 73 bd e6 ff ac bc 80 89 a7 ba a8 20 00 3c
       -0.059363507 -0.021118116 -0.0012782067 0.007820286
000080 b2 1e ab bc 86 d1 8d bd 9e 88 5f 3d 89 01 17 bd
       -0.02088866 -0.06924729 0.054573648 -0.0368667
000090 ca 6f 47 3d 8a 13 2f 3d f0 80 0e 3c 6c 72 24 3d
       0.048690595 0.042743243 0.008697733 0.040148184
0000a0 86 16 1a bd 36 0c 68 bd c6 92 38 bd c8 ba c8 3c
       -0.037619136 -0.05665227 -0.04506185 0.024503127
0000b0 40 9a 17 3c 32 8c a0 bc 9a 9f 3d bd da 48 4b 3d
       0.009253085 -0.0195981 -0.046294786 0.049630024
0000c0 ee 89 4f 3d 06 98 0f 3d c8 25 3e 3d d0 4d d2 bb
       0.05066865 0.03505709 0.04642275 -0.0064179674
0000d0 4c 74 cc bc f7 27 98 bd a0 2e a9 bb 4c ec 82 bd
       -0.024957798 -0.07429498 -0.005163029 -0.06392726
0000e0 da a3 02 3d fe 3e 47 bd 72 1c 83 bd 1b 47 02 bd
       0.031894542 -0.04864406 -0.0640191 -0.031806093
0000f0 00 88 b1 3b e0 56 96 bb eb f2 92 bd db e2 87 3d
       0.005417824 -0.004587993 -0.07175239 0.06635066
000100 80 b0 1c ba d1 63 29 bd 58 12 4f bd f1 be 93 3d
       -0.0005977228 -0.041354958 -0.050554603 0.072141536
000110 34 61 cb 3c 70 76 38 bd ce 92 f6 bc 02 d0 55 3d
       0.024826623 -0.045034826 -0.030099299 0.052200325
000120 e6 4d 46 bd 1e a4 8a bc d2 f5 40 3d 98 98 41 bd
       -0.048414133 -0.01692396 0.047109433 -0.047264665
000130 83 eb 77 bd 29 97 83 3d 16 2d 5e 3d a8 60 89 3c
       -0.060527336 0.06425316 0.054242216 0.016769722
000140 fd 3a 24 bd 0e 29 f1 bc 70 16 92 3c ae 14 7b 3d
       -0.040095318 -0.029438522 0.017832965 0.06129902
000150 a2 e8 58 3d bc d1 47 3d 70 7c 36 3d 10 e4 08 3d
       0.05295623 0.048784003 0.044552267 0.033420622
000160 10 23 3f 3c 55 a3 62 bd ce 7d 6c bd 1f bb 6e bd
       0.011666074 -0.055331547 -0.057737164 -0.05828392
000170 8c 88 99 3c 18 3a ab 3c 20 cf 41 3b 50 32 6c 3c
       0.018741868 0.020901725 0.002957292 0.014416292
000180 d8 95 88 bd 28 62 0b bc fe ec 6f 3d d0 3e d5 bb
       -0.066692054 -0.008507289 0.058575623 -0.006507732
000190 ec 84 a7 3c 9a b7 70 3d a8 53 08 bd 4a f3 94 bd
       0.020449124 0.058768846 -0.033282906 -0.07272966
0001a0 a6 d0 3a 3d 40 d4 79 3c 70 21 ad 3c 4a 38 2f bd
       0.04560914 0.015248358 0.021134108 -0.04277829
0001b0 69 2c 90 bd 52 2e 10 3d 84 3a 45 bd b0 15 5e bd
       -0.070397206 0.035200424 -0.048151508 -0.0542199
0001c0 88 07 c4 3c 44 7d 8b 3c d9 1f 8a bd 70 e9 e8 3b
       0.023929372 0.017027505 -0.06744356 0.007107906
0001d0 bc b5 94 3c 22 68 84 bd a8 20 41 bc d8 3c ae bc
       0.018153064 -0.06465174 -0.011787571 -0.021269247
0001e0 89 0f 82 3d f3 72 98 bd 50 1a bc bb 30 cb 54 3c
       0.06350619 -0.074438 -0.0057404414 0.012987897
0001f0 98 19 88 bd c0 d8 10 3d 6c 88 81 bd 3d 94 95 3d
       -0.066455066 0.03536296 -0.063248485 0.07303665
000200 94 d8 01 3d 58 ae 61 bd 71 ca 81 3d 86 8f 35 3d
       0.031700686 -0.055097908 0.06337441 0.044326328
000210 c0 74 07 3c 42 f3 72 3d 08 2c 2f 3d 43 b4 53 bd
       0.008267581 0.05931402 0.0427666 -0.051685583
000220 2c 32 f2 3c c7 3e 87 3d f3 da 8d 3d 8f a6 8f 3d
       0.02956494 0.06603771 0.06926527 0.070141904
000230 fc f0 7d bc 58 2e 05 bc 22 33 56 bd c6 4a 2f 3d
       -0.01549935 -0.008128725 -0.052294858 0.04279592
000240 34 9e c0 bc 30 2b a8 3b 1e 37 3a 3d e4 15 7b bd
       -0.023512937 0.0051321015 0.04546272 -0.061300173
000250 1a 7e 04 3d b2 ff d9 bc e7 0f 85 bd e0 a5 cd 3c
       0.032346822 -0.026611183 -0.06497174 0.02510351
000260 2e 74 d4 bc 90 15 b6 3c 8c 80 c6 bc 1c ab f7 bc
       -0.025934305 0.022227079 -0.024231218 -0.030232958
000270 60 61 a8 3b 38 97 0b bd 80 2f c9 bc 4b 47 88 3d
       0.005138561 -0.03407976 -0.024558783 0.06654223
000280 13 c2 82 3d 93 a8 90 3d ae 6a 10 3d 20 96 37 bb
       0.06384673 0.07063403 0.035257988 -0.0028013065
000290 b4 73 3e 3d db 2d 8d 3d 20 c4 0a bd 34 35 b7 3c
       0.04649706 0.06893512 -0.033878446 0.022364236
0002a0 62 8c 16 3d c9 2e 81 3d 00 b4 69 3c 50 f8 43 bc
       0.036754973 0.06307752 0.014264107 -0.011961058
0002b0 6d 63 87 bd 50 14 cc 3b 9c e6 1b 3d 2c 3b f5 3c
       -0.06610761 0.0062280074 0.038061723 0.029935442
0002c0 a4 46 98 bc ae ea 5c 3d 0f 60 92 3d 59 6b 7c bd
       -0.018588372 0.053934745 0.07147228 -0.061625812
0002d0 d0 e9 da 3b 56 17 ae bc af 8d 87 bd 84 84 7a bd
       0.0066807047 -0.021251362 -0.06618821 -0.061161533
0002e0 62 1b 4c 3d a4 e2 fe 3c ce c4 5a bd 9a 63 3c 3d
       0.0498308 0.03111393 -0.053410344 0.045993425
0002f0 a0 cb 51 3b 36 88 2c 3d 50 b2 db 3c 4f bf 81 3d
       0.003201224 0.04212209 0.026818424 0.06335317
000300 13 b4 21 bd a2 f2 3f 3d 00 99 04 3b 20 79 47 bd
       -0.039478373 0.046862252 0.0020232797 -0.0486995
000310 59 a3 61 bd c0 1b b4 ba 00 b6 38 3b dc 80 b1 3c
       -0.05508742 -0.001374118 0.0028184652 0.02166789
000320 7c 69 86 3c a0 47 8a bc 24 fd 5f bd b7 9c 95 3d
       0.01640772 -0.016879857 -0.054684773 0.073052816
000330 04 ef 04 bd 8c cb 33 3d 66 84 32 3d 35 33 05 bd
       -0.032454506 0.04389529 0.043583296 -0.032519538
000340 78 d9 cb 3c 58 6b 38 3c 93 9d 8c bd a8 a4 bc bc
       0.02488397 0.0112560615 -0.068659924 -0.023027733
000350 ec 2c f4 3c 9e 1d 7d 3d 88 38 ca bc 7f 7f 90 3d
       0.029806577 0.061795823 -0.02468516 0.07055568
000360 2e 1b 00 3d da dd 1d 3d 60 90 b2 3b 00 e0 49 b7
       0.03127592 0.038541652 0.0054493397 -1.2032688e-05
000370 6d ec 1c bd 2f 62 88 3d a4 1c bd bc 08 90 60 bd
       -0.03831141 0.06659352 -0.023084946 -0.05482486
000380 a1 c4 97 3d d2 1e 54 3d 80 03 e0 3a 80 85 79 bc
       0.07410551 0.051787205 0.0017090887 -0.015229583
000390 29 fa 90 bd d6 bb e7 bc dd b1 0f bd 26 26 10 bd
       -0.07078964 -0.02828781 -0.035081733 -0.03519263
0003a0 41 b9 29 bd 64 08 39 3d 9c be b0 3c 81 e4 44 bd
       -0.041436438 0.045174018 0.021575265 -0.04806948
0003b0 fc 6d 28 3d da 3b 55 3d e6 ca 67 3d 28 cf 3c bc
       0.041120514 0.052059032 0.056589983 -0.011523999
0003c0 d8 57 0b bc 20 40 7e 3b 0e cb 47 bd 96 ff 73 3d
       -0.00850483 0.0038795546 -0.048777632 0.059569918
0003d0 e0 3f 5d 3c a4 0a 9f bc e3 0b 83 bd 6c 09 dd 3c
       0.0135039985 -0.019414254 -0.063987516 0.026982032
0003e0 1a 47 75 3d 82 91 59 bd 02 f2 62 3d b6 03 54 3d
       0.05988226 -0.053117283 0.055406578 0.05176135
0003f0 c5 78 93 3d 76 09 7f bd d8 09 84 3c dc 7a d7 3c
       0.07200769 -0.062264882 0.016117975 0.026303701

layers.2.bias f4 [88]
000000 1e 6e 76 3d 9a dd 7d bd de 90 8d bd 00 f5 dc ba
       0.06016361 -0.061978914 -0.06912397 -0.0016857684
000010 33 52 89 3d 00 50 83 bb 2e 0b 65 3d 18 27 6f bd
       0.067051314 -0.0040073395 0.055918865 -0.058386892
000020 83 22 5b bd ae aa 69 bd 80 25 d7 3c cc e1 8b bd
       -0.05349971 -0.05704754 0.026262999 -0.06830177
000030 a3 f3 8e bd de 63 55 3d 71 6e 87 3d b6 17 50 3d
       -0.06980064 0.052097194 0.06612862 0.050803863
000040 2a b2 8a bd 58 da d2 3c d7 b2 74 bd 42 ab 5d 3d
       -0.06772263 0.02573888 -0.059740867 0.054118402
000050 ae 31 6f bd 66 26 87 bc 68 d5 de 3c b4 a2 8b 3c
       -0.058396988 -0.016497802 0.02720137 0.017045356
000060 02 98 22 3d ba e9 18 3d 70 bb 7d bd 44 3e bd 3c
       0.039695747 0.037332274 -0.061946332 0.02310098
000070 26 28 a0 bc 75 4b 3b bd 12 7b aa bc 4e 99 50 3d
       -0.019550394 -0.04572626 -0.020810638 0.050927453
000080 ba 2d 0f 3d 20 83 34 3d 39 9d 8f 3d f4 50 ba 3c
       0.034955718 0.044070363 0.0701241 0.02274368
000090 10 f2 04 bd b6 9c 3d 3d ac 62 40 bd e4 bc 91 3c
       -0.03245741 0.04629203 -0.0469691 0.017790265
0000a0 60 98 58 3b c5 75 2a bd 34 cd d1 3c 58 9c 73 bc
       0.0033049807 -0.04161622 0.025610544 -0.014868818
0000b0 a4 e0 8f 3c 38 fe 92 bd d0 a1 d7 3b 33 80 91 3d
       0.017563172 -0.07177395 0.006580569 0.0710453
0000c0 90 b5 af bb 40 4a 85 bc 78 53 11 3c 58 13 8f bd
       -0.00536222 -0.016270757 0.008869998 -0.069861114
0000d0 ae 45 28 3d 5a 14 63 3d 5e c9 9c bc a0 6f 32 3c
       0.041082077 0.05543933 -0.019138988 0.010890871
0000e0 6a 47 ad bc 3c 9c 49 bd 82 8b 68 3d ae 4f 89 bc
       -0.021152217 -0.049221262 0.05677367 -0.016761627
0000f0 a0 62 42 3c e2 7a 69 3d d4 02 3a 3d a8 51 c3 3c
       0.011864334 0.057001956 0.045412853 0.023842648
000100 c9 99 92 bd 11 3c 4b bd 54 05 65 bc eb f1 80 bd
       -0.071582384 -0.04961783 -0.013978321 -0.06296142
000110 20 d7 16 3d 40 75 aa ba 6e e6 5b 3d a0 e8 3c 3b
       0.036826253 -0.0013004914 0.05368655 0.0028825179
000120 1e e4 85 bd 36 96 32 bd 57 5b 77 bd 4f 19 94 3d
       -0.065376505 -0.043600284 -0.060389843 0.0723139
000130 c8 a2 10 bc 1c 86 00 bd ea 44 0b 3d 44 dd a8 3c
       -0.008827873 -0.031377897 0.03400127 0.02061332
000140 bb 33 85 3d 80 63 7a 3c 34 b4 1b 3d c0 76 5a bc
       0.065040074 0.015282512 0.038013652 -0.013333976
000150 6b 37 73 bd d8 e2 e8 bc c6 68 60 3d 6b cd 7d bd
       -0.059379023 -0.02842848 0.05478742 -0.06196348

layers.3.weight f4 [132, 88]
000000 81 fd 6c bd 42 b1 97 3d 80 8e 8b 3b 70 8d af 3d
       -0.057858948 0.07406856 0.0042589307 0.08571899
000010 e0 8b 2a 3d 00 c4 2e bc 74 d7 a7 3d 6d 23 84 bd
       0.0416373 -0.010666847 0.08195391 -0.064520694
000020 ec 7b 50 bd eb e2 59 bd 00 c0 f2 3c 96 b1 82 3d
       -0.05089943 -0.05319492 0.029632568 0.06381528
000030 48 dd a7 3c b0 16 93 3c 20 52 6d 3d 68 33 19 3d
       0.020491257 0.017955154 0.05793965 0.03740254
000040 75 df b1 bd e0 bf fd 3c e4 a1 8d 3d 48 8e bc bd
       -0.08685199 0.030975282 0.06915644 -0.092068255
000050 88 e8 73 3c 6c 5d 09 bd d0 11 94 bc 86 67 09 bd
       0.014886983 -0.03353636 -0.0180749 -0.033545993
000060 00 f2 70 3d 50 3a 13 bc a2 0f c9 3d e4 82 2f bd
       0.05882454 -0.008986071 0.09817435 -0.042849436
000070 08 f7 97 3d d5 2e 7f bd c8 84 22 3d 10 4a 7c 3c
       0.07420164 -0.062300522 0.03967741 0.015398517
000080 60 cf 2f bd e0 06 08 3d 2d 05 8a bd 7c b8 cc 3d
       -0.042922378 0.03320968 -0.067392685 0.09996125
000090 10 48 07 3c a1 40 54 bd b0 d0 99 bc 42 1a 80 3d
       0.008256927 -0.051819447 -0.018776268 0.06255008
0000a0 80 3f 18 3d 70 85 a7 bc 7a a3 b6 3d 32 d0 47 bd
       0.037169933 -0.02044937 0.089178994 -0.048782535
0000b0 2b 16 d2 bd 16 af 1b bd 7a a6 37 bd f7 9f 9a bd
       -0.102581345 -0.03800877 -0.0448365 -0.07550042
0000c0 e4 ba 5e 3d 0c 2c 51 3d 00 8a a1 3d ce 3f 88 3d
       0.05437745 0.051067397 0.078876495 0.06652795
0000d0 84 1c 98 3d 9c 56 8a 3d 18 7d 9e bd 0c 30 c5 bc
       0.07427314 0.06754801 -0.077387035 -0.024070762
0000e0 c8 67 c5 3d 08 7d 38 bc 98 9a c5 3d 1c 64 8b bd
       0.09638935 -0.0112602785 0.09648627 -0.06806204
0000f0 14 69 c5 bc 7a 67 bc 3d 60 d5 d8 3d 68 95 c9 3c
       -0.024097957 0.09199424 0.10587573 0.024607375
000100 24 b6 30 3d ec 7b 2c 3d dc ac d7 bc 04 d2 c3 3d
       0.043142453 0.04211037 -0.026327543 0.09561542
000110 2e 53 31 bd 1c af ac bd 40 67 c2 bd 3a e2 7d bd
       -0.043292217 -0.08431837 -0.094923496 -0.061983325
000120 39 40 97 bd f0 d9 4b bc 00 68 94 3c 44 74 80 bd
       -0.073852964 -0.012442097 0.018115997 -0.06272176
000130 90 76 c0 3d 4a 82 ad 3d 84 26 4e 3d 88 65 39 3c
       0.09397614 0.08472116 0.0503297 0.011315711
000140 d3 e3 c0 bd 78 04 08 3c a9 23 c2 bd e7 f4 b8 bd
       -0.09418454 0.008301847 -0.09479458 -0.090310864
000150 1c 25 bf bc c3 03 c7 bd ee 31 2f bd 7b b7 d3 bd
       -0.023333125 -0.09717514 -0.042772226 -0.103377305
000160 1a e1 b0 bd 2e cf a6 bd da bc 19 bd 0a d6 ac bd
       -0.08636685 -0.08144985 -0.03753362 -0.08439262
000170 02 eb 59 bd 55 ae 63 bd 6c ca 37 3d 28 5c 0b bd
       -0.053202637 -0.055586178 0.04487078 -0.034023434
000180 58 eb 88 bc 36 39 da 3d 23 f0 5a bd 10 3d d0 bd
       -0.016713783 0.10655443 -0.05345167 -0.10167897
000190 48 6a 5a 3c f0 e8 d9 bb 08 1c a9 3d 02 c4 cf 3d
       0.0133310035 -0.0066500828 0.082573 0.101448074
0001a0 78 78 de 3c b8 71 d0 3d 48 b2 ac bc a0 ed a3 bd
       0.027157053 0.1017794 -0.021081105 -0.08004308
0001b0 4c 06 8f bd 8d d1 a7 bd f0 56 d2 3d 80 6d e6 bc
       -0.06983623 -0.081942655 0.10270488 -0.028128386
0001c0 28 58 82 3d a4 30 b3 3d be f7 92 bd 91 bb aa bd
       0.06364471 0.08749512 -0.07176159 -0.08336557
0001d0 b2 bb c0 bd 66 de cd 3d 68 fd 15 3d 96 e6 b9 bd
       -0.094108 0.10052185 0.03661862 -0.09077184
0001e0 c8 4a 21 bc 3c 8b 63 bd 6b 80 68 bd c8 34 62 bc
       -0.009844489 -0.055552706 -0.056763094 -0.013806529
0001f0 30 4f 92 3b 06 65 cf 3d f0 12 df 3c f6 22 16 bd
       0.0044650063 0.101266906 0.02723071 -0.036654435
000200 2c ea 79 3d 3c 3c a5 3d f8 2c e5 3c c0 cc 1f 3b
       0.06101434 0.080681294 0.027975544 0.0024383515
000210 85 43 96 bd a0 8b ee 3c ba be 7b bd 80 a4 72 ba
       -0.07337097 0.029119313 -0.061461188 -0.000925608
000220 60 b8 08 bd 58 84 61 3c 20 31 cd 3d 94 51 34 bd
       -0.03337896 0.013764463 0.100191355 -0.04402311
000230 90 bc d2 3d b4 5f 55 3d 1c 29 5d 3d b0 a7 df bc
       0.10289872 0.052093223 0.053994283 -0.02730164
000240 47 93 85 bd b8 a6 39 bc 51 58 4d bd 58 64 00 3d
       -0.065222315 -0.011331253 -0.050133053 0.031345695
000250 48 02 07 3d 50 33 76 3c ac 3e c1 3d 80 bc 8f bc
       0.03296116 0.015026882 0.09435782 -0.017545938
000260 f0 8a ac bb e8 2c 6b 3c 87 5a 60 bd d8 af b7 3d
       -0.005265586 0.014353968 -0.054773834 0.089690864
000270 82 2b 1f bd e0 e7 58 3b 10 48 8f bd 2d 6b bc bd
       -0.03885985 0.0033097193 -0.06996167 -0.0920013
000280 de dc 96 3d 4b eb d0 bd a0 dc ce 3c d0 2b 98 3b
       0.07366346 -0.102011286 0.025251687 0.0046438947
000290 c0 fe f0 3c b6 78 b6 3d 0c cc 22 bd f0 15 33 3c
       0.02941835 0.089097425 -0.039745376 0.010930523
0002a0 e0 c5 83 bc ba 0b 66 bd d4 bc b8 bc 15 4d b3 bd
       -0.016085565 -0.056163527 -0.022550978 -0.087549366
0002b0 94 cd 61 3d b4 2e 81 3c 85 69 8a bd c1 94 9c bd
       0.055127695 0.01576934 -0.067584075 -0.0764556
0002c0 92 ae 8b 3d 4d 26 59 bd 18 f0 a7 3d 74 91 78 3d
       0.06820406 -0.053015042 0.08200091 0.06068559
0002d0 94 94 ab bc 12 b3 b3 bd c4 36 6b 3d 10 25 9e bc
       -0.020944871 -0.08774389 0.057425275 -0.019304782
0002e0 ca c8 a1 bd e8 64 72 3d e8 09 a6 3d 08 a6 33 3d
       -0.078996256 0.059178263 0.08107358 0.04385951
0002f0 1c 27 22 bd e8 3a 08 3c f9 16 94 bd 08 bd 1d bd
       -0.03958808 0.008314826 -0.07230944 -0.038510352
000300 c2 43 c3 3d 00 f4 c7 b8 c8 bc 40 3d c0 66 19 3b
       0.09534408 -9.534508e-05 0.047055036 0.002340719
000310 ec 56 86 bd 06 9e 82 3d d0 82 5c 3d 7c a8 1a 3d
       -0.06559548 0.06377797 0.05383569 0.037758335
000320 6c 75 90 3c 59 e1 d5 bd 1c 93 83 3d 4c d3 c4 bd
       0.017634116 -0.10443372 0.06424543 -0.09610614
000330 24 3d d1 bd bc 79 4d 3d 10 37 a9 3d e2 0e 3d bd
       -0.1021674 0.050164923 0.082624555 -0.04615677
000340 98 1d 0f 3c f8 8d 00 3c f8 01 5f bd 2c 07 87 bc
       0.008735083 0.007846348 -0.054445237 -0.016482912
000350 98 66 9e 3d a4 10 79 3d 58 d0 d3 bc b2 ad c0 3d
       0.07734412 0.060806885 -0.025856182 0.0940813
000360 15 4c a1 bd e0 42 a6 3b 70 0d 04 bc 5e 5c 82 3d
       -0.078758396 0.00507389 -0.008059844 0.06365274
000370 4c d1 5c 3d c8 e6 39 bc 38 91 76 bd 86 ef 01 bd
       0.05391054 -0.011346526 -0.060197085 -0.031722568
000380 44 56 d5 3d 80 41 a6 3d fc 14 8a 3d 34 9f 6e 3d
       0.104168445 0.08117962 0.06742284 0.058257297
000390 c9 03 83 bd 6c 25 bc bd 86 d2 be 3d 4c 23 13 3d
       -0.06397206 -0.09186825 0.09317498 0.035922334
0003a0 60 76 a1 3d 7d fd 7c bd 70 f5 9d 3d 10 c6 06 bd
       0.07883906 -0.061765183 0.07712829 -0.03290373
0003b0 72 7d 97 bd 98 88 bb bc c0 26 15 bc 06 ed 62 bd
       -0.07396974 -0.022892281 -0.009103477 -0.055401824
0003c0 20 47 72 3d 2c 97 ba 3d 44 e9 c7 3d 0e 83 69 bd
       0.05914986 0.09110865 0.09761289 -0.05700975
0003d0 c0 84 55 3d a4 78 c2 bc a2 86 b4 bd 80 1c c6 bb
       0.052128553 -0.023739167 -0.08814742 -0.006045878
0003e0 d4 6e ac bc 30 b7 7e 3d 34 4f 2c bd ba 53 cb 3d
       -0.02104894 0.06218642 -0.04206772 0.09928079
0003f0 a0 1b a4 3d 98 44 05 3d d4 ed 86 bd e8 0d b4 bd
       0.080130816 0.03253612 -0.06588331 -0.08791715

layers.3.bias f4 [132]
000000 21 6d cc bd 64 ca 80 bd 30 6a a6 3c 04 69 ff bc
       -0.09981752 -0.06288603 0.020314306 -0.031178005
000010 be fe b8 bd 88 66 aa 3d c3 a0 c1 bd 92 3b 87 3d
       -0.09032963 0.083203375 -0.09454491 0.06603159
000020 3a d9 1f bd 70 69 dd 3c 48 bd 52 3d 04 1c 10 3d
       -0.039025523 0.027027816 0.051450044 0.035182968
000030 70 2d 71 bc 80 68 95 bc 92 ea b6 3d 8a 82 b8 bd
       -0.014720306 -0.018238306 0.089314595 -0.09009273
000040 03 0a b3 bd cc 6a 68 3d a4 0f 8d 3d 21 11 ae bd
       -0.08742144 0.056742474 0.06887749 -0.08499361
000050 3c 40 d2 bd 38 d9 d9 3d 30 47 a5 bb 30 ee f3 3b
       -0.10266158 0.10637134 -0.0050438866 0.0074441656
000060 f0 44 fe 3c 19 06 6c bd 54 c8 ac bc 34 2e bf bd
       0.031038731 -0.057623003 -0.021091618 -0.093349844
000070 be f2 4f bd dc 10 6e 3d c0 de 7c 3d 90 a3 92 bc
       -0.050768606 0.058121547 0.06173587 -0.017900258
000080 c4 fe 99 3d d8 1f 1a bc 64 4f a3 bd 40 3f 65 3d
       0.07519296 -0.009407006 -0.07974127 0.055968523
000090 64 04 8a bc bc e4 ca bc b0 6d e8 bc 66 96 91 3d
       -0.016847797 -0.024767272 -0.028372616 0.07108764
0000a0 10 74 97 3c 6a f4 bf bd 18 63 9f 3d a0 79 ce 3c
       0.01848796 -0.0937279 0.077825725 0.02520448
0000b0 a2 44 9f bd 7c 7c f7 bc 90 fe f9 bc 0e f1 9e 3d
       -0.077767625 -0.030210726 -0.030516893 0.07760821
0000c0 0f 12 57 bd a0 1f 54 3d e6 88 b4 3d 14 78 96 bd
       -0.052507456 0.051787972 0.08815174 -0.07347122
0000d0 f3 47 c0 bd b8 4a 11 bd 48 d0 57 3d b8 cd 8d bd
       -0.09388723 -0.035471648 0.052688867 -0.06924003
0000e0 c8 56 1d 3c 8e 1c 8a 3d c1 2f 61 bd fc 3d 7c 3d
       0.00960321 0.067437276 -0.054977182 0.06158255
0000f0 48 fb e8 3c 60 eb 59 3d 5c 9f 24 bd 3e 91 9b 3d
       0.028440133 0.053202987 -0.04019104 0.07596062
000100 4c 25 a7 bc 88 8b 11 3c 5e 6f 88 3d 50 aa c6 3b
       -0.020403527 0.0088833645 0.066618666 0.0060627833
000110 64 d3 8f bd 99 3a c9 bd d5 5b d4 bd 96 b7 be bd
       -0.070227414 -0.0982563 -0.10369078 -0.0931236
000120 48 5d 11 bc 08 32 77 3d f0 95 d0 bb 4c 1b 02 3d
       -0.008872338 0.060350448 -0.00636553 0.031764314
000130 cb 85 b1 bd 39 b0 af bd 60 a0 0e 3c 59 6b 96 bd
       -0.08668097 -0.08578534 0.008705229 -0.07344694
000140 bb 90 36 bd d8 e4 1a bc a3 7f a9 bd a8 6f 55 3c
       -0.04457162 -0.009453975 -0.08276298 0.013027109
000150 48 64 99 3c f8 84 48 3d c3 a7 b6 bd 48 f3 69 bd
       0.018724576 0.048954934 -0.08918717 -0.057116777
000160 99 0e c1 bd 04 cf 06 bd f4 7e 85 bc cd 68 82 bd
       -0.094266124 -0.03291227 -0.016295888 -0.063676454
000170 4d 80 36 bd 7e 9f 1f bd ae e5 ab bd f6 31 8e 3d
       -0.04455595 -0.038970463 -0.08393417 0.06943123
000180 30 c0 aa 3c 6a 6c 80 3d 48 0c 8b bd 70 a2 85 3d
       0.020843595 0.06270678 -0.06789452 0.06525123
000190 7a 38 84 bd e0 3b 7b bc 48 f5 43 bc 58 da ed bc
       -0.064560845 -0.0153340995 -0.011960335 -0.029034778
0001a0 2f 7e aa bd a8 b7 69 3d ee 9a 88 bd d6 0d 99 3d
       -0.08324849 0.057059914 -0.066701755 0.07473342
0001b0 1e cc 88 bd a0 63 b5 bc 38 d0 9a 3d 12 2d 95 bd
       -0.06679557 -0.022142231 0.07559246 -0.07283987
0001c0 31 21 9b bd 88 04 d1 3d 0a a0 a5 3d 1e 98 2f bd
       -0.0757469 0.102059424 0.08087166 -0.04286968
0001d0 c0 21 64 3d 44 05 d0 3d fc 87 96 bd 16 34 70 bd
       0.05569625 0.10157254 -0.07350156 -0.058643423
0001e0 00 51 43 bc a8 57 6e 3d bc 43 3a 3d 4c d6 8d bd
       -0.011921167 0.058189064 0.045474753 -0.069256395
0001f0 e4 ec c0 3d c8 22 f8 bc 88 77 f5 3c 30 cb ff bb
       0.09420183 -0.030290022 0.029964224 -0.0078062043
000200 c1 13 93 bd e0 01 4d 3d 0e 03 8e 3d e1 44 85 bd
       -0.07181502 0.050050616 0.069341764 -0.06507278

batch_norms.0.weight f4 [151]
000000 00 00 80 3f 00 00 80 3f 00 00 80 3f 00 00 80 3f
       1.0 1.0 1.0 1.0
000010 00 00 80 3f 00 00 80 3f 00 00 80 3f 00 00 80 3f
       1.0 1.0 1.0 1.0
000020 00 00 80 3f 00 00 80 3f 00 00 80 3f 00 00 80 3f
       1.0 1.0 1.0 1.0
000030 00 00 80 3f 00 00 80 3f 00 00 80 3f 00 00 80 3f
       1.0 1.0 1.0 1.0
000040 00 00 80 3f 00 00 80 3f 00 00 80 3f 00 00 80 3f
       1.0 1.0 1.0 1.0
000050 00 00 80 3f 00 00 80 3f 00 00 80 3f 00 00 80 3f
       1.0 1.0 1.0 1.0
000060 00 00 80 3f 00 00 80 3f 00 00 80 3f 00 00 80 3f
       1.0 1.0 1.0 1.0
000070 00 00 80 3f 00 00 80 3f 00 00 80 3f 00 00 80 3f
       1.0 1.0 1.0 1.0
000080 00 00 80 3f 00 00 80 3f 00 00 80 3f 00 00 80 3f
       1.0 1.0 1.0 1.0
000090 00 00 80 3f 00 00 80 3f 00 00 80 3f 00 00 80 3f
       1.0 1.0 1.0 1.0
0000a0 00 00 80 3f 00 00 80 3f 00 00 80 3f 00 00 80 3f
       1.0 1.0 1.0 1.0
0000b0 00 00 80 3f 00 00 80 3f 00 00 80 3f 00 00 80 3f
       1.0 1.0 1.0 1.0
0000c0 00 00 80 3f 00 00 80 3f 00 00 80 3f 00 00 80 3f
       1.0 1.0 1.0 1.0
0000d0 00 00 80 3f 00 00 80 3f 00 00 80 3f 00 00 80 3f
       1.0 1.0 1.0 1.0
0000e0 00 00 80 3f 00 00 80 3f 00 00 80 3f 00 00 80 3f
       1.0 1.0 1.0 1.0
0000f0 00 00 80 3f 00 00 80 3f 00 00 80 3f 00 00 80 3f
       1.0 1.0 1.0 1.0
000100 00 00 80 3f 00 00 80 3f 00 00 80 3f 00 00 80 3f
       1.0 1.0 1.0 1.0
000110 00 00 80 3f 00 00 80 3f 00 00 80 3f 00 00 80 3f
       1.0 1.0 1.0 1.0
000120 00 00 80 3f 00 00 80 3f 00 00 80 3f 00 00 80 3f
       1.0 1.0 1.0 1.0
000130 00 00 80 3f 00 00 80 3f 00 00 80 3f 00 00 80 3f
       1.0 1.0 1.0 1.0
000140 00 00 80 3f 00 00 80 3f 00 00 80 3f 00 00 80 3f
       1.0 1.0 1.0 1.0
000150 00 00 80 3f 00 00 80 3f 00 00 80 3f 00 00 80 3f
       1.0 1.0 1.0 1.0
000160 00 00 80 3f 00 00 80 3f 00 00 80 3f 00 00 80 3f
       1.0 1.0 1.0 1.0
000170 00 00 80 3f 00 00 80 3f 00 00 80 3f 00 00 80 3f
       1.0 1.0 1.0 1.0
000180 00 00 80 3f 00 00 80 3f 00 00 80 3f 00 00 80 3f
       1.0 1.0 1.0 1.0
000190 00 00 80 3f 00 00 80 3f 00 00 80 3f 00 00 80 3f
       1.0 1.0 1.0 1.0
0001a0 00 00 80 3f 00 00 80 3f 00 00 80 3f 00 00 80 3f
       1.0 1.0 1.0 1.0
0001b0 00 00 80 3f 00 00 80 3f 00 00 80 3f 00 00 80 3f
       1.0 1.0 1.0 1.0
0001c0 00 00 80 3f 00 00 80 3f 00 00 80 3f 00 00 80 3f
       1.0 1.0 1.0 1.0
0001d0 00 00 80 3f 00 00 80 3f 00 00 80 3f 00 00 80 3f
       1.0 1.0 1.0 1.0
0001e0 00 00 80 3f 00 00 80 3f 00 00 80 3f 00 00 80 3f
       1.0 1.0 1.0 1.0
0001f0 00 00 80 3f 00 00 80 3f 00 00 80 3f 00 00 80 3f
       1.0 1.0 1.0 1.0
000200 00 00 80 3f 00 00 80 3f 00 00 80 3f 00 00 80 3f
       1.0 1.0 1.0 1.0
000210 00 00 80 3f 00 00 80 3f 00 00 80 3f 00 00 80 3f
       1.0 1.0 1.0 1.0
000220 00 00 80 3f 00 00 80 3f 00 00 80 3f 00 00 80 3f
       1.0 1.0 1.0 1.0
000230 00 00 80 3f 00 00 80 3f 00 00 80 3f 00 00 80 3f
       1.0 1.0 1.0 1.0
000240 00 00 80 3f 00 00 80 3f 00 00 80 3f 00 00 80 3f
       1.0 1.0 1.0 1.0
000250 00 00 80 3f 00 00 80 3f 00 00 80 3f
       1.0 1.0 1.0

batch_norms.0.bias f4 [151]
000000 00 00 00 00 00 00 00 00 00 00 00 00 00 00 00 00
       0.0 0.0 0.0 0.0
000010 00 00 00 00 00 00 00 00 00 00 00 00 00 00 00 00
       0.0 0.0 0.0 0.0
000020 00 00 00 00 00 00 00 00 00 00 00 00 00 00 00 00
       0.0 0.0 0.0 0.0
000030 00 00 00 00 00 00 00 00 00 00 00 00 00 00 00 00
       0.0 0.0 0.0 0.0
000040 00 00 00 00 00 00 00 00 00 00 00 00 00 00 00 00
       0.0 0.0 0.0 0.0
000050 00 00 00 00 00 00 00 00 00 00 00 00 00 00 00 00
       0.0 0.0 0.0 0.0
000060 00 00 00 00 00 00 00 00 00 00 00 00 00 00 00 00
       0.0 0.0 0.0 0.0
000070 00 00 00 00 00 00 00 00 00 00 00 00 00 00 00 00
       0.0 0.0 0.0 0.0
000080 00 00 00 00 00 00 00 00 00 00 00 00 00 00 00 00
       0.0 0.0 0.0 0.0
000090 00 00 00 00 00 00 00 00 00 00 00 00 00 00 00 00
       0.0 0.0 0.0 0.0
0000a0 00 00 00 00 00 00 00 00 00 00 00 00 00 00 00 00
       0.0 0.0 0.0 0.0
0000b0 00 00 00 00 00 00 00 00 00 00 00 00 00 00 00 00
       0.0 0.0 0.0 0.0
0000c0 00 00 00 00 00 00 00 00 00 00 00 00 00 00 00 00
       0.0 0.0 0.0 0.0
0000d0 00 00 00 00 00 00 00 00 00 00 00 00 00 00 00 00
       0.0 0.0 0.0 0.0
0000e0 00 00 00 00 00 00 00 00 00 00 00 00 00 00 00 00
       0.0 0.0 0.0 0.0
0000f0 00 00 00 00 00 00 00 00 00 00 00 00 00 00 00 00
       0.0 0.0 0.0 0.0
000100 00 00 00 00 00 00 00 00 00 00 00 00 00 00 00 00
       0.0 0.0 0.0 0.0
000110 00 00 00 00 00 00 00 00 00 00 00 00 00 00 00 00
       0.0 0.0 0.0 0.0
000120 00 00 00 00 00 00 00 00 00 00 00 00 00 00 00 00
       0.0 0.0 0.0 0.0
000130 00 00 00 00 00 00 00 00 00 00 00 00 00 00 00 00
       0.0 0.0 0.0 0.0
000140 00 00 00 00 00 00 00 00 00 00 00 00 00 00 00 00
       0.0 0.0 0.0 0.0
000150 00 00 00 00 00 00 00 00 00 00 00 00 00 00 00 00
       0.0 0.0 0.0 0.0
000160 00 00 00 00 00 00 00 00 00 00 00 00 00 00 00 00
       0.0 0.0 0.0 0.0
000170 00 00 00 00 00 00 00 00 00 00 00 00 00 00 00 00
       0.0 0.0 0.0 0.0
000180 00 00 00 00 00 00 00 00 00 00 00 00 00 00 00 00
       0.0 0.0 0.0 0.0
000190 00 00 00 00 00 00 00 00 00 00 00 00 00 00 00 00
       0.0 0.0 0.0 0.0
0001a0 00 00 00 00 00 00 00 00 00 00 00 00 00 00 00 00
       0.0 0.0 0.0 0.0
0001b0 00 00 00 00 00 00 00 00 00 00 00 00 00 00 00 00
       0.0 0.0 0.0 0.0
0001c0 00 00 00 00 00 00 00 00 00 00 00 00 00 00 00 00
       0.0 0.0 0.0 0.0
0001d0 00 00 00 00 00 00 00 00 00 00 00 00 00 00 00 00
       0.0 0.0 0.0 0.0
0001e0 00 00 00 00 00 00 00 00 00 00 00 00 00 00 00 00
       0.0 0.0 0.0 0.0
0001f0 00 00 00 00 00 00 00 00 00 00 00 00 00 00 00 00
       0.0 0.0 0.0 0.0
000200 00 00 00 00 00 00 00 00 00 00 00 00 00 00 00 00
       0.0 0.0 0.0 0.0
000210 00 00 00 00 00 00 00 00 00 00 00 00 00 00 00 00
       0.0 0.0 0.0 0.0
000220 00 00 00 00 00 00 00 00 00 00 00 00 00 00 00 00
       0.0 0.0 0.0 0.0
000230 00 00 00 00 00 00 00 00 00 00 00 00 00 00 00 00
       0.0 0.0 0.0 0.0
000240 00 00 00 00 00 00 00 00 00 00 00 00 00 00 00 00
       0.0 0.0 0.0 0.0
000250 00 00 00 00 00 00 00 00 00 00 00 00
       0.0 0.0 0.0
